nn/max_reward/version_4_points/w32_s_t005_max_reward/actor.pth (torch, 299863 bytes, 6 tensors)

linear1.weight f4 [256, 30]
-0.0533026 -0.029606033 0.05033573 -0.08056132 -0.15179628 -0.10492159 -0.009864979 0.0737097
0.12348944 -0.08654083 -0.0877013 0.028902978 -0.21989393 -0.06989714 0.10912817 -0.109087706
-0.0177898 0.16062044 -0.052318268 -0.061724633 0.04182534 0.034102436 -0.29903954 0.06301827
-0.09576361 0.05071444 -0.013334489 0.067111894 -0.06781251 -0.11905682 -0.05760971 0.23107246
0.023403905 -0.0073713274 0.032476034 -0.022463536 -0.12589774 0.32314527 -0.15923311 0.13388915
0.22634426 -0.120184705 0.038873956 0.3138339 -0.16452904 0.18681087 0.15923505 -0.04737507
0.01952945 0.0042805634 0.16311616 0.034262057 -0.112824656 0.18134008 -0.13927245 -0.32391208
-0.041843105 0.018733358 -0.31791824 0.16222617 0.23982829 -0.13468811 -0.042487454 -0.10737423
-0.21851407 -0.13393398 0.17264618 -0.25773865 0.05396617 0.2134626 -0.059126787 0.079342246
-0.11023274 0.106539704 0.08594646 -0.17250198 0.14927153 -0.008239944 -0.18438064 -0.08135672
0.15630083 -0.09954995 -0.08221512 -0.0682096 -0.0038648746 0.1398521 -0.09759804 -0.12095593
-0.098545745 0.08729065 0.07080785 -0.14695142 0.22503367 -0.12904295 -0.0378404 0.16657451
-0.1272236 0.21379079 0.22908816 0.1350648 0.05262431 0.10444258 0.10446938 -0.1765283
0.066043854 -0.17658268 -0.15487516 0.18125103 -0.09132742 -0.0006155851 -0.059317846 0.12603751
0.054106683 -0.009990737 0.21668704 -0.025838187 0.098382734 -0.009791573 0.26665878 -0.0638263
-0.22771113 -0.11660872 0.08032573 -0.05482876 0.0910877 0.068214424 0.09525892 0.1487757
0.08394347 -0.04389641 0.08384265 0.16222155 -0.11791352 -0.18017697 0.17364891 -0.14050037
-0.07734424 0.105089605 0.040794272 -0.10811128 0.09229206 0.10263634 0.19627677 0.19896124
0.21627644 0.013746646 0.025202319 0.16939555 0.13141212 0.057841383 -0.017911354 0.3279593
-0.0025397234 -0.023930505 0.102819495 -0.07591508 0.18217957 0.14066064 0.23779398 -0.11481536
0.00584139 0.091080755 0.12098674 -0.19242927 -0.0069142394 -0.06475582 0.032534253 0.0433246
0.020954045 -0.014437322 0.123093486 -0.0051914593 0.05189379 -0.18220608 -0.011445006 0.44588864
-0.14819999 -0.06395777 0.47849724 -0.08109577 -0.07872365 0.019434232 -0.09969617 0.12347526
-0.09385875 0.039316718 0.008667104 0.16613346 0.106069155 -0.15592131 -0.063570276 0.13000883
0.013676515 0.009219591 -0.09850293 -0.22615653 0.12861528 -0.014532964 0.17217566 0.056482892
0.1312618 0.12570317 0.127785 -0.086026065 0.009998283 -0.01047607 0.1560877 -0.017550997
0.061566114 -0.14028835 -0.14122704 -0.09643397 -0.12037315 0.1160017 -0.11834186 0.12536229
-0.22075133 0.14240354 0.07939868 -0.16434878 -0.049470574 0.0065484364 0.12103244 -0.06187209
-0.07981792 0.19177556 0.07293049 0.073128685 0.06987475 6.417566e-05 0.11994568 0.25841075
0.068673 0.027956853 0.26205516 -0.14615293 0.0776649 -0.04345187 0.056289278 0.21333787
0.15379205 0.056063127 -0.13075984 -0.032749053 -0.12561469 -0.2189279 -0.0781748 0.041508105
0.13902633 -0.1486641 0.10144505 0.019703064 -0.046076287 -0.0060046217 -0.1251649 0.13147318
00000000: d453 5abd 5a88 f2bc d72c 4e3d 55fd a4bd
00000010: 7c70 1bbe 21e1 d6bd b9a0 21bc 1cf5 963d
00000020: 08e8 fc3d 523c b1bd bd9c b3bd f0c5 ec3c
00000030: e02b 61be 3b26 8fbd 977e df3d 6069 dfbd
00000040: eabb 91bc af79 243e ae4b 56bd f8d2 7cbd
00000050: 0c51 2b3d ffae 0b3d b61b 99be b90f 813d
00000060: b61f c4bd f2b9 4f3d e778 5abc f671 893d
00000070: 49e1 8abd 10d4 f3bd 29f8 6bbd 429e 6c3e
00000080: 8cb9 bf3c 2d8b f1bb 9705 053d 7305 b8bc
00000090: 56eb 00be 4c73 a53e 010e 23be 3d1a 093e
000000a0: cac6 673e 6623 f6bd 4c3a 1f3d d6ae a03e
000000b0: 4d7a 28be 594b 3f3e 830e 233e 5d0c 42bd
000000c0: 3afc 9f3c f843 8c3b ec07 273e 5f56 0c3d
000000d0: 9d10 e7bd 37b1 393e 709d 0ebe ced7 a5be
000000e0: ad63 2bbd b376 993c 2ec6 a2be 9e1e 263e
000000f0: 8c95 753e aeeb 09be 5307 2ebd 05e7 dbbd
00000100: 27c2 5fbe fd25 09be 29ca 303e 52f6 83be
00000110: a10b 5d3d f195 5a3e ee2e 72bd 307e a23d
00000120: b4c1 e1bd 7d31 da3d b304 b03d 5ca4 30be
00000130: a3da 183e d500 07bc 47ce 3cbe 5a9e a6bd
00000140: 530d 203e d8e0 cbbd 6760 a8bd 7ab1 8bbd
00000150: d649 7dbb 6435 0f3e 7be1 c7bd beb7 f7bd
00000160: 5ad2 c9bd 71c5 b23d b503 913d 6f7a 16be
00000170: 3a6f 663e d623 04be 89fe 1abd 8292 2a3e
00000180: e746 02be f9eb 5a3e 1696 6a3e 6d4e 0a3e
00000190: 978c 573d fee5 d53d 0bf4 d53d d6c3 34be
000001a0: 0042 873d 17d2 34be 9897 1ebe df99 393e
000001b0: df09 bbbd 375f 21ba 45f7 72bd fa0f 013e
000001c0: f89e 5d3d 30b0 23bc 35e3 5d3e 9baa d3bc
000001d0: e37c c93d d56c 20bc 8087 883e 5db7 82bd
000001e0: 1b2d 69be 8dd0 eebd d181 a43d 1f94 60bd
000001f0: 308c ba3d 01b4 8b3d 1c17 c33d a858 183e
00000200: 8eea ab3d b9cc 33bd b2b5 ab3d 681d 263e
00000210: a57c f1bd 5080 38be 05d1 313e 54df 0fbe
00000220: a866 9ebd 3839 d73d e517 273d 7269 ddbd
00000230: 9f03 bd3d 0033 d23d c7fc 483e 7fbc 4b3e
00000240: 9277 5d3e 9d39 613c 1875 ce3c 0776 2d3e
00000250: e690 063e 16eb 6c3d d5ba 92bc 48ea a73e
00000260: 7d71 26bb e809 c4bc 0793 d23d 5e79 9bbd
00000270: 488d 3a3e 5809 103e 4480 733e 5124 ebbd
00000280: 2269 bf3b 8c88 ba3d e5c7 f73d 2e0c 45be
00000290: d890 e2bb b39e 84bd a342 053d 2375 313d
000002a0: d1a7 ab3c 848a 6cbc 7018 fc3d 1e1d aabb
000002b0: 958e 543d 3b94 3abe d683 3bbc 844b e43e
000002c0: bdc1 17be 4bfc 82bd 97fd f43e 8a15 a6bd
000002d0: dd39 a1bd 8a34 9f3c 812d ccbd 99e0 fc3d
000002e0: 0439 c0bd 910a 213d 7800 0e3c e41e 2a3e
000002f0: c93a d93d d6a9 1fbe 2231 82bd 0921 053e
00000300: 7613 603c c40d 173c e7bb c9bd 9495 67be
00000310: b9b3 033e ab1b 6ebc d14e 303e 9b5a 673d
00000320: 7e69 063e 55b8 003e 12da 023e 6f2e b0bd
00000330: d7cf 233c d3a3 2bbc 74d5 1f3e 1cc7 8fbc
00000340: c02c 7c3d c0a7 0fbe d29d 10be 2c7f c5bd
00000350: 3386 f6bd 4d92 ed3d 385d f2bd f95e 003e
00000360: a30c 62be 3cd2 113e c69b a23d 0c4b 28be
00000370: a8a1 4abd 4494 d63b dbdf f73d 976d 7dbd
00000380: 9477 a3bd d060 443e 955c 953d 7ec4 953d
00000390: 7e1a 8f3d 0c96 8638 15a6 f53d 6a4e 843e
000003a0: 6ea4 8c3d c505 e53c 182c 863e 1da9 15be
000003b0: c60e 9f3d 97fa 31bd 968f 663d 3e75 5a3e
000003c0: aa7b 1d3e 73a2 653d e8e5 05be df23 06bd
000003d0: 23a1 00be a32e 60be 1c1a a0bd 6704 2a3d
000003e0: eb5c 0e3e 673b 18be 6cc2 cf3d 5268 a13c
000003f0: 7dba 3cbd 6bc2 c4bb 3a2b 00be e8a0 063e

linear1.bias f4 [256]
0.09279415 0.19957326 -0.14778394 -0.08835335 0.14240925 -0.1520206 -0.045256723 -0.01672539
-0.051821284 0.22678389 0.1119348 0.18486606 -0.16742545 -0.12802862 -0.11263219 0.023327181
0.067878164 -0.019460598 0.083861396 -0.0048237196 0.1419337 0.08995002 0.17072168 0.033140887
-0.045322713 0.15974359 -0.10912492 0.12397414 0.17210925 -0.12173528 0.093158714 0.012019681
0.10689908 -0.08568904 -0.06453313 0.11565978 0.23230669 -0.11812674 0.03504274 -0.16196752
-0.20184869 -0.018820882 -0.016237263 -0.01186256 0.057032023 0.03309389 -0.04828523 0.03661446
0.04534362 -0.07691108 0.018454235 0.12732 -0.015469649 -0.08045628 0.10631865 0.1482622
-0.05503685 0.14733732 -0.13496312 0.029029083 0.10501853 0.07495347 -0.115188785 0.0041053942
0.045394976 0.018385181 -0.024631582 -0.03544532 0.16208434 0.023223257 -0.08486008 -0.13872239
-0.14864737 0.1398923 0.10928747 0.05184226 0.14857514 -0.09843675 0.059369836 0.00071531493
-0.06265102 0.07807749 -0.019893965 0.119699895 0.1212776 -0.069927886 0.13088275 -0.022702537
-0.080338776 0.22318481 0.098802105 0.024594288 -0.03657997 0.16334258 0.17345603 0.01654183
-0.07528898 0.20468488 -0.15350078 0.0973569 -0.068324454 -0.11789434 -0.119965434 0.10802802
0.05347622 -0.050347276 -0.031959075 -0.112932205 -0.04632041 -0.044990774 -0.059049007 0.076520555
0.18962978 0.054394025 -0.102441944 -0.054968175 -0.09661722 -0.06018376 -0.06684017 0.0018893525
0.0044416147 -0.060863793 0.03891865 -0.015618753 -0.03678785 0.050234266 0.024270562 0.046412434
-0.033492606 0.007414389 -0.21981932 -0.05798246 -0.026712624 0.17167367 -0.123011075 -0.14147402
-0.054888505 -0.14900362 0.16269538 -0.1451222 -0.08634264 0.015392943 0.091442145 0.18022674
0.1452691 0.046100978 -0.091319814 -0.16029719 -0.06326285 0.06674192 -0.031200143 -0.0019714732
-0.06386758 -0.22606339 -0.054563332 -0.14917673 -0.053334128 0.21746354 0.13444719 0.025800696
-0.16532168 0.083748646 -0.049280215 -0.14664769 0.076293916 -0.0493857 0.058605846 -0.12569219
0.1278226 -0.07375793 0.20354787 -0.18351103 0.038962044 -0.020252835 -0.06079987 -0.068986066
-0.09306469 0.036940277 0.029860236 0.12958945 -0.09480632 0.00923936 0.14112394 -0.09182749
0.051931567 0.07288078 -0.074494906 -0.069569655 0.06495689 0.07909796 -0.058814116 -0.04828183
-0.0845496 -0.13343316 -0.008536811 0.04544239 -0.030289086 -0.14230905 0.057898533 0.07528314
-0.10449889 -0.022006098 -0.16226187 -0.10688049 -0.011999885 0.12164412 0.1544333 0.106496006
-0.092709936 -0.009070723 0.12830935 -0.122485176 0.16798082 0.0928504 0.19996864 0.045473702
0.04562685 0.022657627 -0.14838181 -0.19330545 -0.00019171488 -0.13083844 0.014070594 -0.025833722
0.18526272 -0.024911778 0.021800041 0.001363363 -0.14681251 0.13819402 0.07661884 0.07863304
0.08465879 0.105918996 -0.0385364 0.036786653 0.09213995 -0.10555384 -0.1357296 -0.15133765
-0.067939125 -0.059563957 0.20556124 0.102895826 0.10767516 -0.022390421 0.12140062 0.022283826
0.07216645 0.07300013 0.08794506 -0.12214819 -0.009546577 0.015929619 0.04222479 -0.115282446
00000000: dc0a be3d ef5c 4c3e ac54 17be 9af2 b4bd
00000010: bbd3 113e 4aab 1bbe 1d5f 39bd af03 89bc
00000020: 8e42 54bd 093a 683e 133e e53d 874d 3d3e
00000030: 9471 2bbe ef19 03be b5ab e6bd a518 bf3c
00000040: b503 8b3d d56b 9fbc 86bf ab3d 4b10 9ebb
00000050: 1157 113e b737 b83d aad1 2e3e bdbe 073d
00000060: 4fa4 39bd d393 233e e37c dfbd 27e6 fd3d
00000070: 683d 303e 5950 f9bd ffc9 be3d 32ee 443c
00000080: e8ed da3d bc7d afbd f229 84bd 09df ec3d
00000090: cee1 6d3e 6fec f1bd fa88 0f3d d0da 25be
000000a0: 6cb1 4ebe 402e 9abc 0204 85bc 2f5b 42bc
000000b0: 699a 693d 758d 073d bcc6 45bd 0bf9 153d
000000c0: 3bba 393d 8e83 9dbd 562d 973c 2d60 023e
000000d0: 6974 7dbc 43c6 a4bd 98bd d93d 0cd2 173e
000000e0: 526e 61bd 98df 163e c633 0abe 66ce ed3c
000000f0: f413 d73d 3481 993d 19e8 ebbd 8b86 863b
00000100: 15f0 393d 859c 963c 2cc8 c9bc 1d2f 11bd
00000110: 70f9 253e b33e be3c 1fcb adbd 3e0d 0ebe
00000120: 0437 18be ed3f 0f3e 1cd2 df3d 8d58 543d
00000130: 1524 183e 3599 c9bd c92d 733d f983 3b3a
00000140: 2e4f 80bd 17e7 9f3d abf8 a2bc 3825 f53d
00000150: 6460 f83d 5a36 8fbd 2106 063e acfa b9bc
00000160: a888 a4bd 8f8a 643e c258 ca3d f679 c93c
00000170: e1d4 15bd 4743 273e 759e 313e bb82 873c
00000180: 1c31 9abd ea98 513e 4f2f 1dbe 0e63 c73d
00000190: b1ed 8bbd 9672 f1bd 70b0 f5bd cb3d dd3d
000001a0: e209 5b3d f238 4ebd 85e7 02bd 0049 e7bd
000001b0: 78ba 3dbd 3f48 38bd 5fdd 71bd cfb6 9c3d
000001c0: 4f2e 423e 45cc 5e3d 15cd d1bd 4f26 61bd
000001d0: 40df c5bd 3f83 76bd 80e3 88bd 26a4 f73a
000001e0: f78a 913b 504c 79bd 2a69 1f3d cce5 7fbc
000001f0: dbae 16bd 72c2 4d3d 0fd3 c63c f71a 3e3d
00000200: 8b2f 09bd 67f4 f23b 5118 61be 047f 6dbd
00000210: 6fd4 dabc 39cb 2f3e 3bed fbbd 91de 10be
00000220: c5d2 60bd 6894 18be 9e99 263e ea9a 14be
00000230: 69d4 b0bd af32 7c3c 0546 bb3d 5c8d 383e
00000240: 6cc1 143e 61d4 3c3d e205 bbbd f224 24be
00000250: f48f 81bd fdaf 883d 7197 ffbc d533 01bb
00000260: 01cd 82bd 297d 67be cd7d 5fbd c9c1 18be
00000270: e374 5abd c3ae 5e3e 86ac 093e fb5b d33c
00000280: 164a 29be 6984 ab3d 0dda 49bd d02a 16be
00000290: fc3f 9c3d a948 4abd af0c 703d 74b5 00be
000002a0: ede3 023e 660e 97bd da6e 503e 51ea 3bbe
000002b0: aa96 1f3d 46e9 a5bc 4909 79bd 9148 8dbd
000002c0: b398 bebd b04e 173d 749d f43c 19b3 043e
000002d0: d129 c2bd af60 173c cb82 103e 0d10 bcbd
000002e0: 32b6 543d 8542 953d c990 98bd 897a 8ebd
000002f0: 1e08 853d 1cfe a13d 12e7 70bd 2bc3 45bd
00000300: 5728 adbd b4a2 08be fbdd 0bbc cd21 3a3d
00000310: d120 f8bc 77b9 11be 0327 6d3d 0c2e 9a3d
00000320: 8403 d6bd 2246 b4bc fa27 26be 29e4 dabd
00000330: 2a9b 44bc 8d20 f93d c323 1e3e 941a da3d
00000340: b5de bdbd 5f9d 14bc 8763 033e 82d9 fabd
00000350: 2a03 2c3e 5a28 be3d 94c4 4c3e a242 3a3d
00000360: 38e3 3a3d 7d9c b93c 67f1 17be ddf1 45be
00000370: 1207 49b9 83fa 05be 5988 663c 3ea1 d3bc
00000380: 83b5 3d3e c913 ccbc 0096 b23c dfb2 b23a
00000390: 0556 16be bc82 0d3e 57ea 9c3d 5c0a a13d
000003a0: 9661 ad3d 0fec d83d 58d8 1dbd 9aad 163d
000003b0: dfb3 bc3d 9d2c d8bd b3fc 0abe 42f8 1abe
000003c0: ab23 8bbd 56f9 73bd a57e 523e 0cbb d23d
000003d0: cb84 dc3d 1e6c b7bc e3a0 f83d 928c b63c
000003e0: 01cc 933d 1881 953d 8a1c b43d d528 fabd
000003f0: 3f69 1cbc d57e 823c e7f3 2c3d 3419 ecbd

linear2.weight f4 [256, 256]
-0.04716801 -0.024799198 -0.020622004 -0.056712966 -0.031350393 -0.016258882 -0.041568108 -0.02467822
0.0075798673 0.052389104 0.014308678 -0.04647497 -0.013451633 0.04124275 -0.010824207 -0.038823877
-0.041097973 -0.0131246 0.019095588 0.016757526 -0.058753636 -0.05218983 -0.056725945 -0.014539787
-0.032473434 -0.016363923 0.0067350874 0.04612676 -0.019560236 0.041996267 0.022035684 0.021019699
-0.018021468 -0.02587607 0.010811044 0.02075279 0.04076489 0.0087424535 -0.02532545 -0.039796546
0.03402454 0.007826748 -0.009630253 0.04732475 -0.022960305 0.015615076 0.05600057 -0.008489031
-0.019983083 0.040595762 -0.060060598 -0.029362375 0.004349426 -0.007466651 -0.027711313 0.037987765
-0.056201264 -0.053126145 -0.0055064256 -0.008656043 0.047327306 0.03051158 0.027917525 0.053418983
-0.003920566 -0.034854382 0.045167282 0.01115416 -0.05936576 -0.0029815147 -0.0454983 -0.023476625
-0.048006326 -0.039580487 -0.021483442 -0.057586852 -0.060306773 -0.037687052 0.04043391 0.015035898
-0.06355961 0.027395217 -0.03300007 0.039423317 -0.06381286 -0.027927868 -0.060963187 0.014843759
-0.041553658 0.047797132 0.0099075185 -0.08859244 -0.061852068 0.0013931534 0.038528048 -0.005264223
-0.0023367254 0.03318177 -0.056972697 -0.009006642 -0.00024938266 0.020436672 -0.041248504 -0.046763927
-0.024128182 -0.045468573 0.027317936 0.04160118 -0.041445196 0.03845344 -0.033234738 0.030903256
0.051412825 0.041132033 -0.045243144 0.031912103 0.016810456 0.035822116 -0.038432267 0.015497458
-0.0009311923 -0.05973535 -0.0023434856 -0.06649982 -0.059580438 0.021833051 -0.047501493 0.028306441
-0.076307066 0.023226153 0.032612752 -0.020640396 -0.040106583 0.019424928 -0.054225363 0.051741794
-0.062243883 -0.00356137 -0.04757015 -0.012683631 0.000954149 -0.012113659 -0.019848198 -0.04729411
0.044492375 -0.050164923 -0.005776699 -0.017519401 -0.007075541 -0.005387355 -0.0071848645 0.0189618
-0.031205721 -0.052528474 0.048229102 -0.004021153 0.008416941 0.032632582 0.05069281 -0.057164457
0.035939205 -0.061057698 -0.044287942 0.02045517 -0.003603299 0.042965148 -0.04793059 0.03363026
-0.03773679 0.01721078 0.04651896 -0.057980396 0.016847597 0.044968728 -0.022822052 -0.012118044
-0.06466571 0.02562116 -0.053956017 0.053964555 -0.025775062 0.005695852 0.045141082 -0.014862871
-0.00091722154 -0.03386075 -0.0034958199 -0.011250146 -0.049643062 -0.016733116 -0.08013578 0.054670613
-0.022584885 0.011412184 -0.009551545 -0.033441033 0.036516752 -0.04067312 0.009465112 -0.04584756
-0.03570096 -0.0193073 0.0027653233 0.03675514 -0.05458624 0.018483076 0.0029466583 -0.026492111
-0.038476266 0.021065723 0.033125706 -0.048202038 -0.060485695 0.04791895 -0.026990555 -0.027898837
-0.03720443 -0.055152148 0.03339823 -0.049978737 -0.0033106047 -0.053299796 0.003954749 0.019034699
-0.05393851 0.030388754 -0.04400099 0.022260817 0.032706544 -0.036282364 -0.013308916 -0.013818461
-0.037744325 -0.02075903 0.0051963995 0.034434672 0.028497797 -0.06718168 -0.033840068 -0.021371793
0.008699381 0.016002376 0.007897025 0.0119977575 -0.037060212 0.0013175596 -0.042677123 -0.038934596
0.012640798 0.015065973 0.016046338 0.053981263 0.03743285 0.023531877 0.004625 0.0032032633
00000000: 3e33 41bd b027 cbbc 7aef a8bc db4b 68bd
00000010: 4569 00bd 5931 85bc 5243 2abd fa29 cabc
00000020: 8960 f83b f595 563d f26e 6a3c 8a5c 3ebd
00000030: 3d64 5cbc 28ee 283d 0458 31bc c905 1fbd
00000040: 5956 28bd 9008 57bc 5a6e 9c3c 1447 893c
00000050: a7a7 70bd 01c5 55bd 7759 68bd 4938 6ebc
00000060: dd02 05bd a20d 86bc 02b2 dc3b 6aef 3c3d
00000070: ca3c a0bc 4704 2c3d 2e84 b43c 8131 ac3c
00000080: c2a1 93bc 0dfa d3bc ce20 313c c101 aa3c
00000090: 16f9 263d 823c 0f3c 5177 cfbc b401 23bd
000000a0: 515d 0b3d c33b 003c 35c8 1dbc 99d7 413d
000000b0: 4017 bcbc 60d6 7f3c db60 653d 9415 0bbc
000000c0: 90b3 a3bc be47 263d 1a02 76bd 5d89 f0bc
000000d0: a185 8e3b cfaa f4bb d602 e3bc 0f99 1b3d
000000e0: 4c33 66bd cd9a 59bd 3f6f b4bb 13d2 0dbc
000000f0: 47da 413d 6cf3 f93c 4bb3 e43c ddcd 5a3d
00000100: 1778 80bb 78c3 0ebd 5401 393d f0bf 363c
00000110: 8329 73bd 8465 43bb 6d5c 3abd 0d52 c0bc
00000120: 48a2 44bd 261f 22bd 0bfe afbc 31e0 6bbd
00000130: 3c04 77bd bd5d 1abd 079e 253d 2159 763c
00000140: 8a2b 82bd ef6b e03c 152b 07bd 587a 213d
00000150: 51b0 82bd fcc8 e4bc 89b4 79bd 3d33 733c
00000160: 2b34 2abd edc6 433d 2553 223c f46f b5bd
00000170: 9858 7dbd 799a b63a 96cf 1d3d 817f acbb
00000180: bf23 19bb 9ce9 073d 345c 69bd 9890 13bc
00000190: 93bf 82b9 cf6a a73c 31f4 28bd 888b 3fbd
000001a0: 77a8 c5bc 413d 3abd ddc9 df3c 0066 2a3d
000001b0: 70c2 29bd 5b81 1d3d 2621 08bd d328 fd3c
000001c0: 4196 523d 107a 283d e050 39bd 44b6 023d
000001d0: 15b6 893c 36ba 123d 276b 1dbd 0de9 7d3c
000001e0: 421b 74ba 0ead 74bd 2a95 19bb 0f31 88bd
000001f0: 9e0a 74bd 3adb b23c ed90 42bd e9e2 e73c
00000200: e146 9cbd c644 be3c f394 053d 0c16 a9bc
00000210: cd46 24bd 0721 9f3c 6a1b 5ebd 34ef 533d
00000220: 71f3 7ebd e065 69bb ebd8 42bd 01cf 4fbc
00000230: db1f 7a3a 5e78 46bc b098 a2bc 78b7 41bd
00000240: a33d 363d bc79 4dbd 774a bdbb d984 8fbc
00000250: f1d9 e7bb 6988 b0bb 036f ebbb c755 9b3c
00000260: 24a3 ffbc 1928 57bd e18b 453d e0c3 83bb
00000270: 36e7 093c bea9 053d 44a3 4f3d 4725 6abd
00000280: fd34 133d a317 7abd 4667 35bd 9a91 a73c
00000290: 5325 6cbb 39fc 2f3d de52 44bd e2bf 093d
000002a0: e491 1abd 9ffd 8c3c aa8a 3e3d da7c 6dbd
000002b0: f903 8a3c 2131 383d 50f5 babc c38a 46bc
000002c0: 756f 84bd 78e3 d13c fc00 5dbd f009 5d3d
000002d0: 3926 d3bc 45a4 ba3b dbe5 383d 6683 73bc
000002e0: b271 70ba 92b1 0abd 201a 65bb 8852 38bc
000002f0: 8656 4bbd e313 89bc 3a1e a4bd 4bee 5f3d
00000300: f003 b9bc 2bfa 3a3c 157e 1cbc 77f9 08bd
00000310: 9792 153d dc98 26bd 8f13 1b3c a7ca 3bbd
00000320: 2b3b 12bd 582a 9ebc 6d3a 353b 8f8c 163d
00000330: d295 5fbd d269 973c b91c 413b fc05 d9bc
00000340: 4a99 1dbd 0692 ac3c d2ae 073d 806f 45bd
00000350: d9bf 77bd a946 443d 4c1b ddbc 1a8c e4bc
00000360: ac63 18bd 38e7 61bd 95cc 083d 81b6 4cbd
00000370: bbf6 58bb e350 5abd d796 813b a8ee 9b3c
00000380: a1ee 5cbd d6f1 f83c 623a 34bd 515c b63c
00000390: 4cf7 053d d19c 14bd a40d 5abc d466 62bc
000003a0: cb99 1abd d70e aabc 8f46 aa3b 5f0b 0d3d
000003b0: 3674 e93c 8c96 89bd e29b 0abd e613 afbc
000003c0: d987 0e3c 6a17 833c 8662 013c 3e92 443c
000003d0: 73cc 17bd f7b1 ac3a 35ce 2ebd e279 1fbd
000003e0: 5a1b 4f3c 45d7 763c 9c73 833c 751b 5d3d
000003f0: 3053 193d ecc5 c03c 508d 973b d7ed 513b

linear2.bias f4 [256]
-0.058911685 0.06041546 -0.017513882 -0.056614123 -0.04511326 -0.028470164 0.029986002 -0.017247427
-0.008612955 0.04826786 -0.013188975 -0.006411539 -0.015410268 -0.015472527 0.020803604 -0.008911249
0.07264587 -0.054977342 0.099062316 0.001096271 -0.06722409 0.04165836 0.030250214 0.00072257576
0.00941599 -0.03889138 0.055405717 -0.030962048 0.030687489 -0.0656198 0.017272271 0.023637673
-0.024801306 0.026997548 0.019084357 -0.011916106 0.03969546 -0.04522764 0.054571025 0.057923097
0.052272394 0.017002707 -0.042719457 0.02872764 -0.03557423 0.0073396396 0.08913449 -0.05439669
-0.042939413 0.069432735 0.0047534574 0.07426776 -0.034906067 0.038573727 0.018399302 0.017416365
0.03612094 -0.040871635 0.028672043 -0.024484871 -0.027990876 0.0025559377 0.02984887 -0.027519712
0.056854453 -0.009839918 0.07888975 -0.03494922 -0.012544071 -0.051356222 0.013347849 0.07125229
0.008597033 0.0111078955 -0.025414076 0.06589693 -0.006632839 -0.028469061 0.024936989 0.04783674
-0.061880417 0.0053400956 0.0692335 0.030890666 -0.009606069 -0.06455088 -0.06437396 -0.042340193
0.0067995153 -0.05280876 -0.029909318 0.00973553 0.02127847 -0.07532398 -0.0558312 -0.03741698
0.0073532886 -0.027822588 0.032732513 0.02508737 -0.017087117 -0.039196715 -0.04664215 0.01008425
-0.03063803 0.048813917 -0.0018557331 -0.043498397 -0.061734907 -0.008019989 0.055847824 -0.0001714727
0.03673324 0.06740873 0.021293648 -0.05288646 0.006981867 0.029849019 0.07336956 -0.014121686
0.037833225 0.02742243 0.003306248 -0.05480043 -0.022263626 -0.000474617 0.027517416 0.065400176
-0.058162764 -0.0022074038 0.036296085 -0.005820723 -0.029289048 -0.04399195 -0.048707686 0.04040342
0.026342206 -0.020332653 0.05753506 0.005414123 0.04630647 -0.09452705 -0.076610446 0.07541711
0.044616595 0.007852076 0.016815959 0.00629552 -0.024087679 -0.039002385 0.08941106 0.008359805
0.07713722 0.04174321 -0.004545863 -0.01950295 -0.0009405469 0.023065645 0.009265575 0.08638419
0.0034598692 -0.057464954 0.019779164 0.0330582 0.041969366 0.011316902 -0.027436491 -0.0035463327
-0.022510812 -0.057705466 0.05231227 0.024189863 0.0468939 -0.023389008 0.026401738 -0.010919336
0.043536216 0.02281985 0.043347955 0.069119275 -0.0085013835 0.03571715 0.029627226 -0.040052984
0.0022796495 0.08350113 0.0548574 0.054295644 0.013856811 0.06765567 -0.022647368 -0.0045981538
-0.023913933 -0.04867539 -0.0330857 0.05432397 -0.019514728 -0.06407842 -0.043337427 0.011421139
0.017311074 -0.050235268 -0.01917679 -0.047096394 -0.0146346465 -0.035539694 -0.02863231 -0.076426536
0.061152283 0.011161895 0.046321627 0.008524225 -0.014244566 0.02027329 0.077847466 0.07244167
-0.036136054 0.011175689 0.043725096 0.0717866 0.05937799 -0.0018197163 0.0034178589 -0.023733608
0.021633219 0.061345324 0.0013600851 0.00806511 0.0066244686 -0.016204108 0.06573627 -0.017142106
-0.014257604 0.031798296 -0.0045996746 0.06059906 0.05230729 0.07300497 -0.02380758 -0.02979181
-0.034856085 0.017552298 0.07619142 -0.035655204 0.01675852 -0.012179123 0.08146718 0.043901704
-0.0023812861 -0.040170245 0.045559682 -0.016972251 -0.014198973 -0.026053395 -0.03104732 0.03496976
00000000: 614d 71bd 3476 773d 4679 8fbc 36e4 67bd
00000010: afc8 38bd 433a e9bc 34a5 f53c 7a4a 8dbc
00000020: 5a1d 0dbc 85b4 453d 9216 58bc e317 d2bb
00000030: 597b 7cbc 7b80 7dbc 526c aa3c 7d00 12bc
00000040: 5cc7 943d ec2f 61bd 2fe1 ca3d c0b0 8f3a
00000050: c9ac 89bd f5a1 2a3d 4ccf f73c 3d6b 3d3a
00000060: 8645 1a3c 914c 1fbd 1bf1 623d 1fa4 fdbc
00000070: 5464 fb3c ac63 86bd 947e 8d3c cba3 c13c
00000080: 1c2c cbbc f629 dd3c cc56 9c3c c53b 43bc
00000090: b597 223d 9e40 39bd de85 5f3d c540 6d3d
000000a0: 941b 563d 4349 8b3c 99fa 2ebd 3a56 eb3c
000000b0: 49b6 11bd 5c81 f03b 258c b63d 10cf 5ebd
000000c0: 3de1 2fbd c032 8e3d e4c2 9b3b b219 983d
000000d0: aaf9 0ebd 7cff 1d3d 22ba 963c c4ac 8e3c
000000e0: 8df3 133d 0469 27bd a2e1 ea3c 7f94 c8bc
000000f0: 1f4d e5bc 8581 273b 9e85 f43c 0571 e1bc
00000100: 37e0 683d 9c37 21bc f390 a13d ea26 0fbd
00000110: a685 4dbc e75a 52bd f0b0 5a3c b8ec 913d
00000120: 92da 0c3c e4fd 353c 2e31 d0bc f8f4 863d
00000130: 4958 d9bb f337 e9bc a848 cc3c 75f0 433d
00000140: 5276 7dbd f8fb ae3b 4bca 8d3d 6c0e fd3c
00000150: c662 1dbc 4033 84bd 7fd6 83bd e96c 2dbd
00000160: 78ce de3b 004e 58bd 6304 f5bc c681 1f3c
00000170: 3050 ae3c 7543 9abd 42af 64bd 8c42 19bd
00000180: dbf3 f03b 32ec e3bc 8712 063d 0784 cd3c
00000190: 48fa 8bbc bc8c 20bd d70b 3fbd 6938 253c
000001a0: 9bfc fabc 1af1 473d 123c f3ba 602b 32bd
000001b0: bedd 7cbd 4666 03bc b0c0 643d 5acd 33b9
000001c0: 9875 163d 970d 8a3d 0470 ae3c 799f 58bd
000001d0: 25c8 e43b ee85 f43c c842 963d a55e 67bc
000001e0: 03f7 1a3d 01a5 e03c a3ad 583b 6a76 60bd
000001f0: 3562 b6bc 04d6 f8b9 346c e13c 87f0 853d
00000200: 143c 6ebd 17aa 10bb 34ab 143d c3bb bebb
00000210: 96ef efbc e730 34bd b681 47bd 0e7e 253d
00000220: 9ccb d73c aa90 a6bc e2a9 6b3d f568 b13b
00000230: daab 3d3d 6697 c1bd f0e5 9cbd 4974 9a3d
00000240: e4bf 363d fea5 003c 9fc1 893c a64a ce3b
00000250: 8653 c5bc f7c0 1fbd 251d b73d 90f7 083c
00000260: 1efa 9d3d eefa 2a3d 76f5 94bb a7c4 9fbc
00000270: 098f 76ba 2af4 bc3c a3ce 173c 32ea b03d
00000280: f9be 623b 5f60 6bbd ea07 a23c 0968 073d
00000290: 12e8 2b3d 876a 393c 7ec2 e0bc 9769 68bb
000002a0: 9868 b8bc 915c 6cbd 6445 563d d229 c63c
000002b0: d113 403d 4e9a bfbc 7548 d83c 04e7 32bc
000002c0: 0853 323d b2f0 ba3c a08d 313d 688e 8d3d
000002d0: 6349 0bbc 254c 123d ccb4 f23c 990e 24bd
000002e0: 2c66 153b a402 ab3d 27b2 603d 1c65 5e3d
000002f0: ae07 633c 0e8f 8a3d f986 b9bc 1cac 96bb
00000300: 27e7 c3bc d95f 47bd df84 07bd d082 5e3d
00000310: 5add 9fbc 8c3b 83bd 9682 31bd bb1f 3b3c
00000320: f4cf 8d3c 7fc3 4dbd a518 9dbc 26e8 40bd
00000330: 28c6 6fbc 1292 11bd 4e8e eabc 8485 9cbd
00000340: d17a 7a3d 61e0 363c bfbb 3d3d 31a9 0b3c
00000350: 0a62 69bc 2c14 a63c 7e6e 9f3d 4c5c 943d
00000360: 6603 14bd 3d1a 373c 1619 333d da04 933d
00000370: 5636 733d 8c83 eeba 28fe 5f3b fc6c c2bc
00000380: 2638 b13c 3c45 7b3d e244 b23a 8623 043c
00000390: 1212 d93b 7abe 84bc bda0 863d 9a6d 8cbc
000003a0: ba98 69bc ee3e 023d deb8 96bb b836 783d
000003b0: 2b40 563d a183 953d 1d08 c3bc f40d f4bc
000003c0: 41c5 0ebd d6c9 8f3c 3f0a 9c3d 310b 12bd
000003d0: 2a49 893c f28a 47bc 44d8 a63d 46d2 333d
000003e0: 5a0f 1cbb 8e89 24bd ca9c 3a3d 6409 8bbc
000003f0: cfa2 68bc ee6d d5bc f356 febc 733c 0f3d

linear3.weight f4 [3, 256]
-0.020368794 -0.11527813 0.04892742 -0.58990556 0.03932541 -0.05313787 -0.4907313 0.03723339
-0.109772176 0.020844247 -0.18651463 -0.110326454 -0.3607398 -0.39987382 0.20887873 -0.2231554
0.18615544 -0.2595063 0.17331862 -0.29776877 0.26744783 -0.008700129 0.71781266 0.056534987
-0.26654774 -0.086637184 -0.027535155 0.12968916 0.045499504 0.06429182 0.1343859 -0.24527691
-0.4341314 -0.07676319 -0.06524963 0.16751081 0.17829148 -0.008091211 0.068846755 0.03888477
0.1392891 -0.17026584 -0.40311044 -0.067672506 -0.07110573 0.1796538 0.19877426 -0.04038754
-0.24532758 0.057461355 0.16728337 -0.036909267 -0.3114154 -0.02246346 -0.16871269 0.100881375
-0.051797234 -0.03176765 -0.16454533 0.09734774 -0.01072837 -0.1971578 -0.011747567 -0.07368032
0.11430652 0.16961661 0.15353979 -0.24476817 -0.021803474 -0.14068471 0.15782179 0.08579572
0.04479713 -0.25120524 0.058613993 0.2617142 0.050155554 0.14206584 -0.019803427 -0.048879284
-0.29366305 0.0684683 -0.1036018 0.11450813 -0.3430656 -0.22478266 -0.40588886 0.08664102
0.18329568 0.037754368 0.21099426 0.036471184 -0.017577576 -0.23389034 -0.06548413 -0.24989742
-0.021674665 0.20372309 0.22138701 0.093968876 0.023111008 -0.22866663 0.10180392 0.029564785
0.096367426 0.15025087 0.12817581 -0.000106565865 0.045827325 -0.25198328 0.04736609 -0.2496139
-0.106981784 0.1500775 0.0053207227 0.04831233 -0.14848864 0.19740254 0.2522132 0.17329846
0.021400826 -0.029021345 0.2349326 -0.17942408 0.0038278187 -0.1116814 0.20827284 0.0108650485
0.02048903 -0.15479793 -0.21005824 0.0691617 -0.2769801 -0.15734056 -0.34764278 -0.03364325
0.23493013 0.03340513 0.10151952 0.060408395 -0.14420743 -0.099603124 -0.17305815 0.1981214
-0.021279087 -0.13812491 0.1347436 -0.20902665 -0.06577953 -0.3901163 0.13876243 -0.2939367
0.15517655 0.16602667 0.17099246 -0.22564596 -0.14189845 -0.12558395 -0.23366672 0.16368793
-0.10503999 0.06224453 0.030904524 -0.3168745 -0.4685013 0.05181323 0.22683759 0.19886822
0.009206981 -0.062374804 -0.062692136 -0.12438549 0.13336928 0.14374901 0.0019494834 -0.05564816
-0.029637894 -0.24104716 0.0024593065 0.08626205 0.12537046 -0.34894603 0.15053307 0.100281574
0.031965267 0.16666712 0.19328402 0.20587528 0.17012799 0.21418646 0.07441428 -0.014231781
0.058494058 -0.021379191 -0.005982843 -0.0029974338 -0.3475665 -0.6725428 -0.26304564 -0.22875808
0.4565071 -0.029975366 0.09456839 -0.5375237 0.0026959036 -0.2114384 -0.15330522 -0.26149112
0.21127559 -0.12547307 -0.30223867 -0.048616957 -0.008284758 0.05115493 0.18248095 0.04741272
0.02470038 0.13125199 0.18054596 0.01815345 -0.03317083 0.019219894 -0.21122363 0.003600355
0.121814795 0.1958833 -0.20015417 0.14691162 -0.0031904378 0.12837711 0.1444099 -0.044557437
-0.0026484262 0.11931663 -0.23866212 -0.30504572 0.026332185 0.15549986 -0.21656667 0.27406415
0.068667635 0.09875658 0.199528 -0.14626484 0.062311117 0.15342307 0.21460107 -0.082894
-0.033713926 -0.115715005 0.19177982 0.14496489 -0.069517046 0.12486013 -0.084013835 -0.2450758
00000000: 75dc a6bc f116 ecbd 1e68 483d 0d04 17bf
00000010: ae13 213d 18a7 59bd 2241 fbbe 0a82 183d
00000020: 3cd0 e0bd 8ec1 aa3c b1fd 3ebe d6f2 e1bd
00000030: e3b2 b8be 43bc ccbe 4ee4 553e d982 64be
00000040: 889f 3e3e 02de 84be 707a 313e 2675 98be
00000050: ecee 883e fc8a 0ebc 92c2 373f 3b91 673d
00000060: f278 88be d66e b1bd 6891 e1bc 3ccd 043e
00000070: b05d 3a3d 6eab 833d 759c 093e df29 7bbe
00000080: 7946 debe 0536 9dbd 99a1 85bd f487 2b3e
00000090: 0b92 363e 0091 04bc 87ff 8c3d a345 1f3d
000000a0: cda1 0e3e 2b5a 2ebe 7e64 cebe e297 8abd
000000b0: e29f 91bd 2af7 373e 7b8b 4b3e 686d 25bd
000000c0: 2737 7bbe 995c 6b3d 554c 2b3e 2c2e 17bd
000000d0: d771 9fbe 4a05 b8bc 05c3 2cbe e59a ce3d
000000e0: 5629 54bd cc1e 02bd 927e 28be 405e c73d
000000f0: 0cc6 2fbc bce3 49be de78 40bc b5e5 96bd
00000100: 8919 ea3d faaf 2d3e 8939 1d3e 82a4 7abe
00000110: 339d b2bc a70f 10be 099c 213e abb5 af3d
00000120: 327d 373d f99d 80be 3a15 703d 67ff 853e
00000130: e96f 4d3d b579 113e cc3a a2bc a535 48bd
00000140: 015b 96be 1c39 8c3d 2e2d d4bd 3d83 ea3d
00000150: 4ba6 afbe 6d2d 66be aad0 cfbe d970 b13d
00000160: ddb1 3b3e 53a4 1a3d e10e 583e cf62 153d
00000170: d9fe 8fbc f380 6fbe 8b1c 86bd 1ce5 7fbe
00000180: 118f b1bc c99c 503e 47b3 623e c172 c03d
00000190: 4c53 bd3c 9627 6abe 937e d03d d931 f23c
000001a0: 495c c53d 5ddb 193e 8540 033e 1d7c dfb8
000001b0: 6fb5 3b3d f403 81be f202 423d c99a 7fbe
000001c0: 4419 dbbd ebad 193e 7559 ae3b 26e3 453d
000001d0: 680d 18be e423 4a3e 1722 813e 2775 313e
000001e0: c950 af3c 2cbe edbc 2c92 703e f2ba 37be
000001f0: 24dc 7a3b 38b9 e4bd 7a45 553e 5103 323c
00000200: 9cd8 a73c 5983 1ebe 8219 57be a6a4 8d3d
00000210: 56d0 8dbe e21d 21be 3cfe b1be 81cd 09bd
00000220: 8691 703e d1d3 083d 77e9 cf3d cb6e 773d
00000230: 1dab 13be b9fc cbbd 2836 31be 56e0 4a3e
00000240: 7b51 aebc 9e70 0dbe 3afa 093e 150b 56be
00000250: 6bb7 86bd 53bd c7be bd17 0e3e df7e 96be
00000260: 9ae6 1e3e e502 2a3e a618 2f3e bc0f 67be
00000270: d44d 11be 1499 00be 5446 6fbe cf9d 273e
00000280: 351f d7bd 1ff4 7e3d 7c2b fd3c 603d a2be
00000290: 67df efbe 1c3a 543d 1d48 683e 1ca4 4b3e
000002a0: e1d8 163c b97c 7fbd bc64 80bd d2bd febd
000002b0: f591 083e f132 133e cf85 ff3a 53ef 63bd
000002c0: 2bcb f2bc 11d5 76be 512c 213b 28aa b03d
000002d0: 1d61 003e 0ea9 b2be 5725 1a3e 6d60 cd3d
000002e0: 03ee 023d c9aa 2a3e 3fec 453e f8d0 523e
000002f0: 0836 2e3e b253 5b3e 8466 983d 6a2c 69bc
00000300: 7797 6f3d 6a23 afbc ba0b c4bb 9870 44bb
00000310: 3cf4 b1be c42b 2cbf ebad 86be 8f3f 6abe
00000320: 4cbb e93e e68e f5bc 12ad c13d 279b 09bf
00000330: c2ad 303b 4f83 58be 0bfc 1cbe 2ae2 85be
00000340: a158 583e 037c 00be 07bf 9abe 9322 47bd
00000350: cbbc 07bc d587 513d 49dc 3a3e d733 423d
00000360: 7458 ca3c ec66 063e 0ae1 383e 8bb6 943c
00000370: 23de 07bd 0a73 9d3c 024b 58be eff3 6b3b
00000380: 097a f93d a295 483e 37f5 4cbe 0070 163e
00000390: aa16 51bb 4a75 033e 30e0 133e dc81 36bd
000003a0: 3891 2dbb 475c f43d d863 74be f42e 9cbe
000003b0: 98b6 d73c 5b3b 1f3e a7c3 5dbe 2352 8c3e
000003c0: 9ea1 8c3d e440 ca3d 1151 4c3e 73c6 15be
000003d0: f139 7f3d f01a 1d3e 62c0 5b3e 54c4 a9bd
000003e0: 9d17 0abd fdfb ecbd ee61 443e ad71 143e
000003f0: f45e 8ebd abb6 ff3d 720f acbd 27f5 7abe

linear3.bias f4 [3]
0.025600294 -0.063466944 0.057375144
00000000: b5b7 d13c f5fa 81bd 3302 6b3d
