nn/max_reward/version_4_points/w32_s_t005_max_reward/critic.pth (torch, 302935 bytes, 6 tensors)

linear1.weight f4 [256, 33]
-0.1339675 0.09653143 -0.05742695 -0.026435357 0.038034335 0.00020652331 -0.10189401 0.3651876
-0.096625954 0.02517969 0.1617028 0.040982924 -0.17767371 0.01674911 0.090463795 -0.03250679
-0.10583817 0.0291829 0.11665567 0.05530013 0.0077994494 0.02430955 0.17467533 0.09780411
0.053447675 -0.35479918 0.16024972 0.019414173 -0.36738804 0.06619569 0.012148033 0.0667144
-0.03309755 0.006023236 0.20884506 -0.072253704 0.0054480187 0.0019688304 -0.0039840187 0.08468349
0.34056252 0.071462244 -0.069443546 0.061909027 0.0030867932 0.14002512 0.04355937 0.1571317
0.21527737 0.22665353 0.09667899 -0.0047144685 -0.49205294 -0.04645231 -0.19454923 -0.274648
-0.09635972 -0.035335682 -0.073609956 -0.2047874 0.10824222 0.18428482 -0.1377675 0.018653782
-0.07389128 0.027024416 0.093683794 -0.08524227 0.06467751 0.00050434924 0.009639775 -0.039958786
-0.1612605 0.045545273 0.05953425 0.005346885 -0.048524488 0.14907749 -0.08580557 0.06243867
-0.017325386 -0.061733805 -0.35157898 0.03082429 0.10518561 0.20520498 0.03779643 -0.05157573
-0.10221056 0.06715027 -0.021976832 -0.09364766 -0.018149927 0.07619349 -0.37804285 -0.09577442
0.0021412682 -0.010036249 -0.00930976 0.087883115 0.13098659 -0.04875556 -0.07313677 -0.012260113
0.0036953914 0.1301989 0.22320272 -0.016538752 -0.038884785 0.3365988 0.13859528 -0.13470003
-0.051877573 -0.10832705 0.1346199 -0.67025757 -0.021290956 0.0785167 -0.55460924 0.011575777
-0.16636886 -0.1567253 -0.16391276 -0.08165048 -0.044419177 -0.16566847 -0.07728238 0.12866125
-0.13328286 -0.0084110005 -0.0063656764 -0.05290971 0.006707076 -0.09115723 0.09897049 0.02392295
0.00960954 -0.06254989 0.07155842 -0.033640876 -0.03600511 -0.053061977 0.2147602 -0.082985416
0.079038724 0.28635666 -0.14986359 -0.19650984 0.21405214 0.022140378 -0.1344623 0.1662877
-0.04774006 -0.16362037 0.097922936 0.03535734 0.045453787 -0.17037584 -0.16242047 -0.1213835
-0.19012421 -0.13141099 0.3368947 -0.3619128 0.21634693 0.17795438 0.1003381 0.034816537
0.02441434 -0.04157786 -0.015302713 0.10168937 -0.14817016 -0.100554876 -0.0013288428 0.19340715
0.022989484 0.050108153 0.18164062 0.067105114 -0.012671544 0.06790237 0.15099329 0.043633547
-0.27983096 -0.1505886 0.113803595 -0.05517155 -0.1274775 0.05732855 0.093211815 0.023875762
-0.1829549 0.31544563 -0.15372354 -0.09888555 0.050636124 0.1043436 -0.33970678 0.73357594
0.06945095 -0.0006728834 0.0052727317 0.0014510495 -0.13259944 0.39973223 -0.10187799 -0.015105473
0.20811035 0.1594888 0.13856803 -0.39943895 0.17012416 0.17776304 -0.40254012 0.19272658
-0.10181668 0.35087165 -0.13206701 0.21837607 -0.09701138 0.06162663 0.12559147 -0.7968066
-0.105553746 0.034496814 -1.1487144 -0.18629386 -0.0055328454 0.051509395 0.008821374 0.049007013
-0.7642738 -0.13729165 0.0031958234 0.001807011 -0.0023474758 -0.062904276 -0.78404045 -0.03633739
-0.0018896776 -0.26905304 -0.19463335 0.22795318 0.8318905 -0.16854906 -0.0005001121 1.5016727
-0.084268406 -0.07667877 0.8238516 0.20508586 -0.15968561 0.29300448 0.22938552 0.15673606
00000000: c72e 09be 45b2 c53d 8638 6bbd f68e d8bc
00000010: e4c9 1b3d 2e8e 5839 cfad d0bd def9 ba3e
00000020: d4e3 c5bd a345 ce3c 6b95 253e b6dd 273d
00000030: 19f0 35be 6e35 893c 1545 b93d d725 05bd
00000040: afc1 d8bd fa10 ef3c 2be9 ee3d 6482 623d
00000050: 8692 ff3b d224 c73c 17de 323e 854d c83d
00000060: f3eb 5a3d 3da8 b5be 8118 243e 790a 9f3c
00000070: 491a bcbe 9b91 873d 8b08 473c 8fa1 883d
00000080: 4c91 07bd 915e c53b 7bdb 553e c0f9 93bd
00000090: 4b85 b23b 7e07 013b 5f8c 82bb 8a6e ad3d
000000a0: 365e ae3e cc5a 923d 6b38 8ebd 5294 7d3d
000000b0: cc4b 4a3b bf62 0f3e 4f6b 323d 22e7 203e
000000c0: ac71 5c3e dd17 683e a2ff c53d d47b 9abb
000000d0: 5dee fbbe c744 3ebd ea37 47be aa9e 8cbe
000000e0: 3f58 c5bd 26bc 10bd d1c0 96bd cab3 51be
000000f0: 19ae dd3d 29b5 3c3e ec12 0dbe d1cf 983c
00000100: 5054 97bd 4f62 dd3c 4add bf3d 8093 aebd
00000110: a475 843d 4e36 043a 26f0 1d3c d3ab 23bd
00000120: 7921 25be ae8d 3a3d 30da 733d ec34 af3b
00000130: 9dc1 46bd c5a7 183e d5ba afbd b1bf 7f3d
00000140: f8ed 8dbc 96dc 7cbd 2902 b4be 3983 fc3c
00000150: 8e6b d73d 4121 523e 6ed0 1a3d 1341 53bd
00000160: c553 d1bd 1586 893d c208 b4bc 58ca bfbd
00000170: 28af 94bc 550b 9c3d d58e c1be 6125 c4bd
00000180: 8554 0c3b 146f 24bc f787 18bc 10fc b33d
00000190: 5921 063e e9b3 47bd bbc8 95bd a4de 48bc
000001a0: 612e 723b dc52 053e 418f 643e 477c 87bc
000001b0: a745 1fbd ae56 ac3e eceb 0d3e ceee 09be
000001c0: 947d 54bd 93da ddbd cdd9 093e 0096 2bbf
000001d0: 5f6a aebc 5dcd a03d dffa 0dbf 54a8 3d3c
000001e0: 995c 2abe 997c 20be bfd8 27be 5e38 a7bd
000001f0: e2f0 35bd ffa4 29be 3946 9ebd c6bf 033e
00000200: 4d7b 08be 4bce 09bc 2a97 d0bb dab7 58bd
00000210: 08c7 db3b a4b0 babd 0ab1 ca3d 10fa c33c
00000220: 5571 1d3c 281a 80bd 398d 923d 04cb 09bd
00000230: 187a 13bd 8457 59bd 19ea 5b3e 42f4 a9bd
00000240: 0edf a13d 579d 923e d775 19be e039 49be
00000250: 7c30 5b3e bd5f b53c 7cb0 09be 5347 2a3e
00000260: 158b 43bd 198c 27be d28b c83d dcd2 103d
00000270: c02d 3a3d 0177 2ebe 8d51 26be ea97 f8bd
00000280: ecaf 42be 9a90 06be 767d ac3e a24c b9be
00000290: 0d8a 5d3e ac39 363e 107e cd3d c99b 0e3d
000002a0: 9500 c83c 8c4d 2abd 3bb8 7abc 8442 d03d
000002b0: ebb9 17be b7ef cdbd 912c aeba 860c 463e
000002c0: 7154 bc3c 353e 4d3d 0000 3a3e 686e 893d
000002d0: 4f9c 4fbc 6610 8b3d fc9d 1a3e 17b9 323d
000002e0: 0146 8fbe e633 1abe dc11 e93d 90fb 61bd
000002f0: 7689 02be 57d1 6a3d d6e5 be3d 1a97 c33c
00000300: 8858 3bbe 1782 a13e b469 1dbe 8284 cabd
00000310: d367 4f3d 19b2 d53d 0cee adbe a2cb 3b3f
00000320: 4d3c 8e3d 7164 30ba e1c6 ac3b 2431 be3a
00000330: 26c8 07be b4a9 cc3e 68a5 d0bd f27c 77bc
00000340: e11a 553e 0851 233e c7e4 0d3e 4383 ccbe
00000350: 0735 2e3e 8407 363e bd19 cebe 1e5a 453e
00000360: 4385 d0bd 73a5 b33e 933c 07be fa9d 5f3e
00000370: e7ad c6bd 356c 7c3d 0d9b 003e 84fb 4bbf
00000380: 902c d8bd 884c 0d3d 1309 93bf d1c3 3ebe
00000390: df4c b5bb 84fb 523d 8687 103c 94bb 483d
000003a0: 73a7 43bf 2f96 0cbe 0571 513b 3ad9 ec3a
000003b0: 1cd8 19bb f5d3 80bd e0b6 48bf 84d6 14bd
000003c0: 0faf f7ba 52c1 89be f74d 47be 8f6c 693e
000003d0: c7f6 543f 2098 2cbe f419 03ba d036 c03f
000003e0: ea94 acbd c209 9dbd f0e7 523f 0702 523e
000003f0: a084 23be af04 963e 0ae4 6a3e 6b7f 203e

linear1.bias f4 [256]
-0.049450167 -0.08745006 -0.08813943 0.13005716 -0.030321661 -0.06347367 -0.12250162 0.14955911
-0.0690762 0.110154815 -0.042079914 -0.1812916 0.24110648 0.037394777 -0.22820382 0.14511363
-0.051134486 -0.073518634 -0.10766817 -0.040836986 0.09638573 -0.19007634 -0.19608647 0.11353276
-0.037419967 0.10367876 -0.04972123 0.11354942 -0.1704256 -0.16541246 -0.1070221 -0.027122071
0.19000968 -0.167399 0.07469609 -0.07796181 -0.03899258 -0.29365805 0.26773518 0.004728649
0.19723107 -0.053052593 -0.1620148 -0.1669196 -0.11885426 0.11739409 0.012456405 0.21268685
-0.04941818 -0.00416738 0.237207 0.06525195 0.08791235 0.18953666 0.15801044 0.027108066
-0.17867444 -0.0018813021 0.07660193 -0.21858549 0.07946953 -0.16253357 -0.15251237 0.16295499
-0.04875182 0.16381823 0.0989394 -0.046347946 -0.116976194 -0.10850539 -0.1209234 0.24865425
0.09791219 0.051126204 -0.1336251 -0.17398052 0.026603976 -0.074222066 -0.12142754 -0.18880078
0.031530876 -0.08222273 -0.07719376 0.07771721 -0.017449459 -0.08563514 -0.02018085 -0.11917166
0.21262196 0.057392783 -0.08018689 -0.10234026 -0.1183678 0.07196076 -0.037218653 -0.0953935
0.16663206 0.3200464 0.09987085 0.018524334 -0.15961304 -0.10166631 -0.13253725 0.0519213
-0.08744164 -0.0085224975 -0.16136116 0.039904438 0.10106929 0.23064435 0.1060725 -0.10034109
0.0041174632 -0.13041238 0.14971334 0.24712826 -0.19402477 -0.081529744 -0.062710784 0.028635498
0.18273322 -0.30732176 -0.016079152 0.0045281686 -0.029956928 -0.180638 -0.21929412 0.04543094
-0.032817487 0.22327413 -0.11264056 0.30600303 -0.23471275 0.07413037 0.08022403 0.036548175
0.02267366 0.008471696 -0.114582 -0.106709085 -0.22677688 -0.079190105 0.2194411 0.052774448
-0.032500565 -0.06956952 -0.026697036 -0.08943796 0.00094000634 0.0090431115 -0.08682984 -0.019611921
-0.13688117 0.066197075 0.19822489 0.06893818 -0.18043792 0.1384029 0.00066667655 -0.020794453
0.07758199 -0.1106904 0.12631918 -0.042625476 0.07306949 0.10282737 -0.12022623 0.05143643
0.15297633 0.1900206 -0.03244308 0.11220327 0.07046295 0.16466111 0.12676154 -0.08811314
-0.032399792 -0.030596193 -0.03619009 -0.088559136 -0.0017515895 -0.00086320395 0.27711987 0.118157715
-0.22293247 0.044434898 0.17837006 -0.020219572 0.043073114 0.10522325 0.14587122 0.17205955
-0.16406387 0.19134003 0.03422325 0.066693425 -0.0785015 -0.071837276 0.1256865 -0.3954048
-0.009235229 -0.16173616 -0.16174127 0.07643045 -0.19848596 0.032483235 0.22747022 0.10525182
0.059865862 -0.07663748 0.25573498 0.044418138 0.00047088868 0.122537404 -0.057295207 0.07048443
0.008163944 -0.25580388 -0.07857237 -0.1958204 0.1034596 0.015230178 -0.33651462 -0.014941028
0.13034801 0.22980687 -0.14764923 -0.0019175218 0.051670708 -0.0047677145 -0.07494895 -0.08545587
-0.16475888 -0.009889173 -0.06005663 0.065217935 0.14939596 -0.069563106 -0.21585268 -0.1120141
-0.18274896 -0.088917874 0.26282814 -0.06285896 0.03437166 0.0473986 0.07014294 -0.12131924
-0.03010407 0.032551307 0.2082493 -0.01921154 0.11696944 0.18790767 -0.15517761 0.030135514
00000000: 428c 4abd 0419 b3bd 7282 b4bd b42d 053e
00000010: 2265 f8bc 7cfe 81bd 21e2 fabd 0626 193e
00000020: d377 8dbd d998 e13d fd5b 2cbd 81a4 39be
00000030: 9ee4 763e 442b 193d 43ae 69be ab98 143e
00000040: 6572 51bd f090 96bd 2181 dcbd af44 27bd
00000050: e265 c53d 5fa3 42be e4ca 48be dd83 e83d
00000060: ae45 19bd 8855 d43d 7da8 4bbd 998c e83d
00000070: 0c84 2ebe e261 29be 672e dbbd 1b2f debc
00000080: e691 423e a56a 2bbe 43fa 983d 71aa 9fbd
00000090: afb6 1fbd 595a 96be 9614 893e c8f2 9a3b
000000a0: f1f6 493e ad4d 59bd 35e7 25be f9ec 2abe
000000b0: dd69 f3bd 506c f03d f315 4c3c 95ca 593e
000000c0: b86a 4abd 848e 88bb 64e6 723e d0a2 853d
000000d0: 640b b43d e615 423e 7dcd 213e bc11 de3c
000000e0: 6ff6 36be 0696 f6ba 79e1 9c3d e0d4 5fbe
000000f0: ecc0 a23d 336f 26be 342c 1cbe acdd 263e
00000100: fdaf 47bd f7bf 273e bda0 ca3d 58d7 3dbd
00000110: 3791 efbd 1338 debd b0a6 f7bd 389f 7e3e
00000120: 3086 c83d b669 513d 05d5 08be f327 32be
00000130: 95f0 d93c bd01 98bd 01af f8bd fe54 41be
00000140: 8526 013d 6464 a8bd c317 9ebd 332a 9f3d
00000150: 2bf2 8ebc 7a61 afbd 4f52 a5bc 4510 f4bd
00000160: 92b9 593e b214 6b3d 0639 a4bd c597 d1bd
00000170: d16a f2bd 2a60 933d 9672 18bd ab5d c3bd
00000180: 98a1 2a3e 1fdd a33e 1789 cc3d 58c0 973c
00000190: 9a71 23be 6d36 d0bd d8b7 07be 6eab 543d
000001a0: 9a14 b3bd f2a1 0bbc dc3b 25be d672 233d
000001b0: 6afd ce3d 082e 6c3e 8a3c d93d a17f cdbd
000001c0: c9eb 863b d38a 05be 744e 193e 310f 7d3e
000001d0: 6eae 46be 11f9 a6bd 836e 80bd fe94 ea3c
000001e0: 6b1e 3b3e 4759 9dbe 6db8 83bc 0861 943b
000001f0: 3b68 f5bc 2bf9 38be a38e 60be cb15 3a3d
00000200: a16b 06bd f9a1 643e 18b0 e6bd 6eac 9c3e
00000210: 8a58 70be aad1 973d 7f4c a43d 8ab3 153d
00000220: 1dbe b93c decc 0a3c f8a9 eabd 4b8a dabd
00000230: 3338 68be 6c2e a2bd 2bb5 603e 052a 583d
00000240: 501f 05bd 777a 8ebd beb3 dabc 402b b7bd
00000250: c26a 763a 8f29 143c d8d3 b1bd 2ea9 a0bc
00000260: 942a 0cbe 5592 873d 77fb 4a3e 762f 8d3d
00000270: b8c4 38be 7db9 0d3e e8c3 2e3a 2159 aabc
00000280: 4ee3 9e3d a6b1 e2bd d159 013e 0d98 2ebd
00000290: 75a5 953d 2897 d23d 2b39 f6bd 02af 523d
000002a0: d4a5 1c3e c394 423e 09e3 04bd d4ca e53d
000002b0: e14e 903d ec9c 283e c7cd 013e a974 b4bd
000002c0: a5b5 04bd dea4 fabc 0f3c 14bd 7e5e b5bd
000002d0: 9795 e5ba a348 62ba a8e2 8d3e acfc f13d
000002e0: 6948 64be 5e01 363d a4a6 363e 84a3 a5bc
000002f0: 6f6d 303d 4a7f d73d 445f 153e 6130 303e
00000300: 5c00 28be a4ee 433e ae2d 0c3d 9096 883d
00000310: 65c5 a0bd 6c1f 93bd f6b3 003e 7f72 cabe
00000320: 5c4f 17bc 2a9e 25be 819f 25be 9187 9c3d
00000330: e73f 4bbe 240d 053d f4ed 683e 448e d73d
00000340: e835 753d 1cf4 9cbd b2ef 823e cbef 353d
00000350: 9ce1 f639 e4f4 fa3d 61ae 6abd 245a 903d
00000360: 10c2 053c baf8 82be 8dea a0bd 2585 48be
00000370: a0e2 d33d ff87 793c a54b acbe 37cb 74bc
00000380: f379 053e 7e52 6b3e 5c31 17be 5b55 fbba
00000390: aaa4 533d 7d3a 9cbb d67e 99bd 7d03 afbd
000003a0: 8db6 28be 3306 22bc f1fd 75bd fb90 853d
000003b0: 41fb 183e 1a77 8ebd 7c08 5dbe a667 e5bd
000003c0: 8b22 3bbe 931a b6bd 6991 863e 33bc 80bd
000003d0: 4cc9 0c3d 0925 423d 1aa7 8f3d 3976 f8bd
000003e0: d09c f6bc 8554 053d 4e3f 553e 8561 9dbc
000003f0: ac8d ef3d de6a 403e e1e6 1ebe c1de f63c

linear2.weight f4 [256, 256]
0.050873846 -0.029676447 0.0085430695 -0.04374635 -0.0019265361 0.08016353 0.08590799 -0.029728865
0.063088074 -0.029897297 0.08334784 0.05871096 -0.004130288 -0.029820176 0.0037088196 0.051853754
-0.014450027 0.026361156 0.06742757 0.04636347 0.01940475 -0.04186192 0.005426833 0.07018478
-0.0076608197 -0.009872991 0.05647232 0.009769062 0.016607746 0.034478676 -0.082234964 -0.0050399997
0.0003351982 0.066040896 -0.06812298 0.44953674 -0.02981265 0.03415832 0.06641296 0.01195283
0.018998431 0.25613227 0.07091761 0.0013233118 -0.08722402 0.0039814957 -0.03689459 0.009473084
0.04535817 0.030364025 0.49504915 -0.04942004 0.038112503 -0.066352405 -0.029824467 -0.0327268
0.146944 0.029039642 0.06514398 -0.050913382 0.065154 0.00034199853 0.114126146 0.19059598
0.056812942 0.043499563 0.02973312 -0.049386766 0.03522693 -0.042822503 -0.00034198025 0.030663814
0.04514131 -0.033858906 0.05374032 0.020300956 -0.025677063 0.05258055 -0.029758746 0.017650278
-0.057480216 -0.014824471 0.02583959 0.096149534 0.075116314 0.054138955 0.010349001 -0.0545885
0.062020767 -0.025468687 0.021027436 -0.008942346 0.051753107 0.056577086 0.00089157413 -0.08728662
0.054321665 -0.040861163 0.008549162 0.07484104 -0.05646828 0.20310445 0.030705752 0.08731479
0.04977112 0.04164145 0.03415404 0.00376428 0.000795925 0.08710214 -0.025563767 -0.01184419
0.085893214 0.0047014593 0.07981527 0.059801977 0.0270084 -0.023083394 0.08911815 -0.022351455
-0.033262543 0.030702703 -0.054224864 0.047256667 -0.17475684 0.068016 -0.056713667 0.05255317
0.07438057 0.0042850077 0.21125808 0.028165193 0.03621355 -0.011778889 0.0017116388 -0.013339859
-0.04666213 0.031473864 -0.025805173 -0.01176863 -0.012807911 -0.077819236 -0.019814057 0.01912073
0.0034234421 0.023126038 -0.033770155 -0.08315859 -0.02805773 0.0018249844 -0.043029115 0.043871686
0.020492125 -0.029938988 -0.018245602 -0.0008506023 -0.028368942 0.28891397 0.05591928 0.042160004
0.004694807 0.051933907 -0.009831194 -0.018184684 -0.011577941 -0.0058237035 0.014314548 0.004490075
0.11501109 0.052401263 0.061104424 0.032894555 0.015686426 0.0081819575 0.03707331 0.022678081
0.082513005 0.044387337 0.015577791 0.059734732 -0.051775094 -0.035160787 0.04532791 0.032064244
0.047404617 -0.007881024 0.054263767 0.011115406 0.05008032 0.085870385 0.025192909 0.024841115
0.02939308 0.054841537 -0.009152691 0.0150612965 0.06703037 0.06645165 0.07917262 0.08487195
0.02312986 0.047897097 0.026930477 0.038051132 0.07296891 -0.00028502283 0.14224428 0.05694677
-0.03804303 0.03198019 -0.052098252 0.08596847 0.014989994 -0.04913537 -0.008676484 0.020025855
0.014947255 0.07139758 0.013883341 -0.04693411 0.025827933 0.019576803 0.2226406 0.018151846
0.06827032 -0.042746976 -0.044717696 -0.04930145 -0.027865378 0.008652668 0.096101776 -0.054434083
-0.054144975 -0.027242215 0.017095564 0.0069550346 0.011875151 0.009559787 0.06298681 0.07377797
-0.0010823056 -0.02866533 -0.16658439 0.023411565 0.06729396 -0.035796512 0.07497046 0.03181673
0.02896884 0.11639036 0.063128084 0.039229404 0.009674713 0.2236336 -0.009095632 0.030069217
00000000: 1861 503d 051c f3bc 3bf8 0b3c 5f2f 33bd
00000010: d383 fcba c72c a43d 87f0 af3d f389 f3bc
00000020: 5234 813d 2deb f4bc 46b2 aa3d e77a 703d
00000030: 5e57 87bb 7149 f4bc ab0f 733b 9a64 543d
00000040: cebf 6cbc 5af3 d73c 7717 8a3d 9fe7 3d3d
00000050: b6f6 9e3c 6877 2bbd 93d3 b13b 0abd 8f3d
00000060: 9d07 fbbb 53c2 21bc 854f 673d 6a0e 203c
00000070: f80c 883c 8339 0d3d ce6a a8bd 9526 a5bb
00000080: 8abd af39 7340 873d 1084 8bbd ae29 e63e
00000090: a939 f4bc 98e9 0b3d 8503 883d cdd5 433c
000000a0: 99a2 9b3c c523 833e 403d 913d fa72 ad3a
000000b0: 82a2 b2bd 3577 823b c81e 17bd fe34 1b3c
000000c0: 7dc9 393d fabd f83c 1577 fd3e ab6c 4abd
000000d0: db1b 1c3d c5e3 87bd 7152 f4bc 890c 06bd
000000e0: 7d78 163e 8be4 ed3c 356a 853d 8d8a 50bd
000000f0: 766f 853d 444e b339 f8ba e93d 982b 433e
00000100: b0b4 683d 992c 323d df92 f33c c749 4abd
00000110: 1d4a 103d a666 2fbd d04b b3b9 ae32 fb3c
00000120: 18e6 383d a3af 0abd cf1e 5c3d 314e a63c
00000130: b458 d2bc b45e 573d 9dc8 f3bc 5197 903c
00000140: 6070 6bbd 57e2 72bc 8cad d33c 0cea c43d
00000150: 95d6 993d cfc0 5d3d db8e 293c 3198 5fbd
00000160: 7d09 7e3d b5a3 d0bc bb41 ac3c eb82 12bc
00000170: 11fb 533d 60bd 673d 87b8 693a 54c3 b2bd
00000180: 6580 5e3d 095e 27bd c911 0c3c 4246 993d
00000190: 484b 67bd 9dfa 4f3e a18a fb3c 19d2 b23d
000001a0: cddc 4b3d 3a90 2a3d 1be5 0b3d 23b2 763b
000001b0: 9fa5 503a 9b62 b23d 1b6b d1bc 220e 42bc
000001c0: c8e8 af3d b30e 9a3b 3076 a33d ebf2 743d
000001d0: b840 dd3c 6319 bdbc 9483 b63d 661a b7bc
000001e0: 4e3e 08bd 3c84 fb3c e41a 5ebd 3590 413d
000001f0: 75f3 32be f94b 8b3d 974c 68bd fe41 573d
00000200: d754 983d 4069 8c3b 0a54 583e b1ba e63c
00000210: a954 143d 3efc 40bc 1159 e03a 6d8f 5abc
00000220: ca20 3fbd bdea 003d 5f65 d3bc 36d1 40bc
00000230: 46d8 51bc b15f 9fbd 1751 a2bc 14a3 9c3c
00000240: d45b 603b d172 bd3c 9352 0abd 0d4f aabd
00000250: 53d9 e5bc 5134 ef3a 4c3f 30bd ccb2 333d
00000260: 1adf a73c 9c42 f5bc cd77 95bc f4fa 5eba
00000270: fc65 e8bc 88ec 933e 9d0b 653d f8af 2c3d
00000280: e5d6 993b a6b8 543d 0413 21bc 0cf8 94bc
00000290: 67b1 3dbc c4d4 bebb 9187 6a3c 7b21 933b
000002a0: ef8a eb3d b5a2 563d a248 7a3d 71bc 063d
000002b0: d280 803c 9e0d 063c 2fda 173d 62c7 b93c
000002c0: 94fc a83d 7fcf 353d fe39 7f3c 68ac 743d
000002d0: 1f12 54bd c204 10bd c2a9 393d cc55 033d
000002e0: 582b 423d 691f 01bc af43 5e3d 641d 363c
000002f0: 0621 4d3d d0dc af3d 5c61 ce3c 987f cb3c
00000300: c2c9 f03c 85a1 603d 2bf5 15bc a8c3 763c
00000310: 3847 893d cd17 883d 4125 a23d 58d1 ad3d
00000320: d57a bd3c bf2f 443d 4e9d dc3c 81db 1b3d
00000330: b970 953d 1e6f 95b9 7ca8 113e 0441 693d
00000340: 02d3 1bbd a9fd 023d fa64 55bd 3d10 b03d
00000350: 9798 753c 2b42 49bd d027 0ebc 430d a43c
00000360: 55e5 743c e538 923d f476 633c fb3d 40bd
00000370: 1a95 d33c 885f a03c e6fb 633e 2eb3 943c
00000380: 4fd1 8b3d 7417 2fbd e729 37bd 51f0 49bd
00000390: ef45 e4bc ecc3 0d3c 02d1 c43d 46f6 5ebd
000003a0: 1fc7 5dbd 112b dfbc ff0b 8c3c 0fe7 e33b
000003b0: fe8f 423c a7a0 1c3c 3bff 803d e818 973d
000003c0: 26dc 8dba 8ed3 eabc 1995 2abe 9cc9 bf3c
000003d0: 6ad1 893d 5d9f 12bd 1d8a 993d 4252 023d
000003e0: 1050 ed3c 125e ee3d 4c49 813d 03af 203d
000003f0: b082 1e3c 3500 653e d805 15bc b853 f63c

linear2.bias f4 [256]
0.015152156 0.013812963 0.0052441894 0.02498317 -0.04622698 -0.07105324 0.026872255 -0.0052351137
0.005048435 -0.04660683 -0.04043793 0.05617909 -0.04860253 -0.0066917352 -0.05313803 -0.016341986
0.066677466 -0.04639204 0.0064226845 0.06307926 0.05597518 -0.0077314065 0.020345138 -0.04196241
-0.065866 0.0644892 0.0139441155 0.079174824 -0.05705594 0.069595516 0.05833798 -0.012750075
0.0057424796 0.008016454 0.005140752 -0.072994895 0.07182363 -0.056385994 0.030534059 -0.001838865
0.021219783 -0.018195795 -0.01048169 0.014524267 0.083583936 0.02153586 0.0084153395 -0.005186427
0.046984218 0.023143975 0.0660284 -0.032690875 -0.041611053 -0.033560008 0.0014237355 0.05847074
0.024887664 -0.0035969487 0.0026220027 0.08727255 0.053093657 -0.052727148 0.049708366 -0.07133245
0.01190365 0.031060398 -0.013797251 0.029582988 -0.014156518 -0.0154302195 0.05667544 0.03536896
-0.15375477 0.075261205 0.038123816 -0.061606176 -0.045676287 -0.0063164923 0.050539 -0.042705204
-0.022187665 0.009185682 0.049492005 -0.01010366 0.003775054 0.059070133 -0.050992243 -0.07130908
0.020508762 -0.009423397 -0.054770876 0.027596468 -0.032096963 0.0039885337 -0.008942704 -0.018755065
-0.018094007 0.017412106 -0.011246642 0.026804786 0.09090179 0.017347462 0.034608684 0.09072261
-0.013725428 -0.025340714 0.0022782376 -0.06310946 0.041102953 0.073117055 -0.01807593 0.08630832
-0.075813465 0.051241968 -0.041645754 0.015654303 -0.062711164 -0.06304422 -0.07397082 -0.0035912595
0.09105688 -0.07409724 0.059072763 -0.062919505 -0.065595716 -0.018096838 -0.023609888 0.083757795
-0.08720196 -0.06580702 0.01932029 -0.038995516 -0.020088453 -0.10138282 -0.055322982 -0.016062627
-0.04471251 -0.0014235873 0.043110244 0.07726785 0.0023391678 -0.015568672 0.08650675 -0.022135824
0.021079922 0.031927537 -0.061612923 0.024350539 0.10756009 0.021561407 -0.010121017 0.011176916
-0.022906357 0.035426755 -0.02953619 0.02290508 0.10454016 -0.05736051 -0.051271744 -0.014164912
-0.02637683 0.011335193 -0.0017785765 -0.043949418 0.069222644 0.0066438615 0.042646695 0.0014278645
-0.01684592 0.07811587 -0.05081156 0.05285101 0.09793993 -0.011770635 -0.03267241 -0.0037151156
-0.05362733 0.0102451015 -0.022157434 0.07844809 0.011741101 -0.027621398 -0.02863393 -0.0190336
-0.04531886 -0.06594315 0.0031209125 0.081215225 0.082149565 0.024417344 -0.004207207 0.09585932
-0.16753334 0.0036043862 0.10018361 -0.03881998 0.011244103 -0.0055808774 0.081659585 -0.0008549872
0.014231397 0.051590472 0.024095966 0.02309653 -0.013680641 0.0009320548 0.023579936 0.08050602
0.021585492 0.038771417 0.025951918 0.058235124 0.005555057 -0.0049646366 -0.017733525 0.057033677
0.09953602 0.018144323 -0.017370973 0.00020893871 -0.0075037796 0.047516037 0.0041924934 -0.017497629
0.07835956 0.04855964 -0.08760414 0.08713359 0.033394177 0.037617825 0.020019406 -0.051074572
0.07278127 -0.012127385 0.08085731 -0.014689235 0.010180108 -0.06869224 -0.06454259 -0.03995135
-0.04959378 0.02608067 -0.035017356 0.019132271 -0.054924242 0.024005944 0.016025092 0.01743695
0.14054836 0.04162515 0.04877233 0.06851084 -0.038030285 0.06617073 -0.011268734 0.027224569
00000000: c040 783c c44f 623c 73d7 ab3b 81a9 cc3c
00000010: 8058 3dbd 5c84 91bd 3423 dc3c 518b abbb
00000020: 586d a53b cee6 3ebd 3ea2 25bd 0c1c 663d
00000030: 7213 47bd 5846 dbbb 43a7 59bd a1df 85bc
00000040: 328e 883d 9405 3ebd 6275 d23b b32f 813d
00000050: 3b46 653d bd57 fdbb d9aa a63c c7e0 2bbd
00000060: c1e4 86bd ea12 843d dc75 643c 6926 a23d
00000070: 7db3 69bd 1888 8e3d cef3 6e3d b1e5 50bc
00000080: 692b bc3b 7257 033c c173 a83b 597e 95bd
00000090: 4418 933d 00f5 66bd 9022 fa3c 1206 f1ba
000000a0: 1cd5 ad3c 590f 95bc 65bb 2bbc 31f7 6d3c
000000b0: 0e2e ab3d f96b b03c 7ee0 093c e7f2 a9bb
000000c0: 8672 403d 6f98 bd3c e639 873d dee6 05bd
000000d0: 5a70 2abd 3876 09bd a39c ba3a 047f 6f3d
000000e0: 37e1 cb3c c9ba 6bbb e8d5 2b3b f3bb b23d
000000f0: bc78 593d 6cf8 57bd 009b 4b3d bf16 92bd
00000100: 8707 433c 6072 fe3c dd0d 62bc 0658 f23c
00000110: bdf0 67bc 08cf 7cbc 8224 683d 0bdf 103d
00000120: e471 1dbe 8c22 9a3d b827 1c3d c256 7cbd
00000130: 0f17 3bbd 94fa cebb fc01 4f3d a7eb 2ebd
00000140: e8c2 b5bc 8b7f 163c 21b8 4a3d d289 25bc
00000150: e566 773b 86f3 713d 3edd 50bd 7f0a 92bd
00000160: fe01 a83c 9764 1abc 6d57 60bd fd11 e23c
00000170: 1b78 03bd 3fb2 823b 6b84 12bc 39a4 99bc
00000180: e239 94bc d5a3 8e3c d643 38bc b695 db3c
00000190: b82a ba3d 441c 8e3c d6c1 0d3d c7cc b93d
000001a0: 9ee0 60bc 5497 cfbc 7c4e 153b 883f 81bd
000001b0: 925b 283d 65be 953d f913 94bc 6bc2 b03d
000001c0: 1744 9bbd 19e3 513d bd94 2abd 743d 803c
000001d0: b66e 80bd 541d 81bd 037e 97bd 565b 6bbb
000001e0: 087c ba3d 4bc0 97bd 48f6 713d f1db 80bd
000001f0: 0c57 86bd d23f 94bc 8669 c1bc 3589 ab3d
00000200: f196 b2bd d5c5 86bd 9645 9e3c c3b9 1fbd
00000210: 8a90 a4bc cca1 cfbd 5a9a 62bd c595 83bc
00000220: 7724 37bd aa97 baba 5e94 303d 9b3e 9e3d
00000230: b94c 193b be13 7fbc 732a b13d 3056 b5bc
00000240: cdaf ac3c 73c6 023d d55d 7cbd c87a c73c
00000250: 7748 dc3d 8ca1 b03c 9fd2 25bc 621f 373c
00000260: 1da6 bbbc a51b 113d e1f5 f1bc 6fa3 bb3c
00000270: 2719 d63d dbf2 6abd 5202 52bd f213 68bc
00000280: 3914 d8bc 3fb7 393c 201f e9ba 4e04 34bd
00000290: 9ac4 8d3d c0b4 d93b 4dae 2e3d 2f27 bb3a
000002a0: 7400 8abc 37fb 9f3d c81f 50bd 4d7a 583d
000002b0: bb94 c83d 9fd9 40bc 81d3 05bd 4c79 73bb
000002c0: 55a8 5bbd 12db 273c 8283 b5bc 64a9 a03d
000002d0: bf5d 403c 4546 e2bc b491 eabc 5aec 9bbc
000002e0: 45a0 39bd 340d 87bd 3988 4c3b 2b54 a63d
000002f0: 083e a83d e206 c83c 9cdc 89bb e451 c43d
00000300: dc8d 2bbe 9137 6c3b 112d cd3d b301 1fbd
00000310: 3039 383c cbdf b6bb 243d a73d 3821 60ba
00000320: ce2a 693c 8850 533d e764 c53c ef34 bd3c
00000330: c424 60bc 2455 743a b62a c13c 57e0 a43d
00000340: 0fd4 b03c c7ce 1e3d 1e99 d43c f487 6e3d
00000350: 3207 b63b 64ae a2bb e645 91bc 259c 693d
00000360: 8ad9 cb3d 67a3 943c 924d 8ebc 8f16 5b39
00000370: 44e2 f5bb 2da0 423d 2f61 893b 3057 8fbc
00000380: fa7a a03d 79e6 463d cd69 b3bd 1873 b23d
00000390: 55c8 083d 2615 1a3d bdff a33c 9233 51bd
000003a0: 590e 953d f0b1 46bc 8498 a53d 1eab 70bc
000003b0: 78ca 263c 84ae 8cbd e82e 84bd 07a4 23bd
000003c0: d922 4bbd 21a7 d53c 5c6e 0fbd 48bb 9c3c
000003d0: 3ef8 60bd 1da8 c43c 0e47 833c efd7 8e3c
000003e0: e9eb 0f3e 227f 2a3d 7fc5 473d 694f 8c3d
000003f0: a5c5 1bbd 8584 873d 7fa0 38bc 0f06 df3c

linear3.weight f4 [3, 256]
-0.05559709 0.32189533 0.67888844 -0.24227966 0.93479586 0.00697932 -0.06751042 -0.0027589235
0.5182667 -0.02644459 0.4696855 -0.024488054 0.86536026 0.023250632 0.040094953 -0.048980683
-0.06392623 0.011700018 -0.07080478 0.006494869 -0.014236893 -0.22596881 -0.7445826 -0.52725464
-0.05173603 -0.065931045 -0.025906527 -0.5317145 -0.031809043 -0.0032131725 -0.4628754 -0.011996867
0.021379983 0.0028137523 0.6299003 -0.043427374 -0.03477407 -0.009977253 -0.07468391 -0.039327595
0.029747412 0.0279898 0.009984958 0.036931403 -0.046526488 0.7702088 0.3855136 0.6994933
0.047015782 -0.2430918 -0.23289718 0.014549843 -0.29142097 -0.70513076 0.030420171 -0.1620255
-0.06519323 -0.028297782 -0.06003197 -0.0037536458 -0.009283909 -0.7709334 -0.77600276 -0.01684856
-0.025738735 -0.039363097 -0.069343776 0.046247255 -0.026037766 -0.6440558 -0.7014671 0.038720228
0.6572959 -0.6732477 0.16092338 0.0072284485 -0.057179164 0.14579308 0.5612844 -0.010192109
0.026701419 -0.037721958 -0.063909315 0.04732819 0.014879727 -0.0023391289 -0.014586019 0.02926442
0.59708923 -0.06268619 -0.9704744 -0.024357315 0.8987857 -0.0019536298 0.25691077 -0.051739305
0.910787 0.02744787 -0.049473166 -0.37699673 1.2562662 0.99317133 -0.05177648 -0.03530742
0.46304375 -0.07032764 -0.017519893 0.030170497 0.55948704 -0.017332034 0.058555186 -0.03004288
0.022050155 0.012952052 -0.7981385 -0.050835844 0.21162018 0.55108774 0.016821176 -0.15694618
0.012074505 0.31525704 -0.01547057 1.513983 -0.049760245 0.15385845 -0.20039727 -0.011262282
-0.029860644 0.2361399 -0.56484437 0.038913507 0.18259491 -1.420704 0.0054729446 0.5081017
0.065442786 -0.036219582 -0.022186672 -0.025013758 -0.34736007 0.0073028686 -0.04335468 0.009991934
-0.8867316 0.30636093 -0.021187996 -1.0372943 -1.8929142 -0.056679685 -0.058551304 -0.043583192
-0.54277587 0.48806378 0.040408146 0.055416517 -0.08553781 0.5914203 0.033469297 0.19845065
-0.0013459304 -0.0025298656 -0.011597008 0.007777144 -1.2036649 0.0032237414 0.599079 1.3653659
0.08780401 -0.052050587 -0.9946591 0.7845512 0.019347595 -0.05498986 0.22128034 -0.014519764
-0.053600825 0.05062439 -0.3103216 -0.29850736 0.76652247 0.042534437 0.04377902 0.47645822
0.2759191 0.0072639743 -0.07891534 -0.07179524 -0.25530684 0.021671193 -0.01524047 -0.005223553
0.7845175 -0.068557255 -0.067049146 0.039792106 0.012207683 0.20471945 -0.07374665 0.14910464
0.0011954602 -0.64003253 -0.033848487 -0.7163237 -0.0368323 0.03649947 0.017378004 0.018556954
-0.049892604 -0.08363635 -0.193835 -0.076667786 0.04763039 -0.04687201 -0.3431803 0.0014882006
-0.017653475 -0.026385851 0.049894497 -0.079238184 0.2649346 0.4267276 -0.059069976 -0.017434465
-0.024107682 0.9530073 -0.005676795 -0.53047806 -0.042691506 0.01714497 -0.11755941 0.048006963
-0.043948486 0.030861594 -0.07272548 0.31881773 -1.1973033 0.094330914 0.1707478 0.24544242
0.08015105 -0.53200865 -0.15836236 -0.052064028 0.10693091 0.015509567 0.59790736 -0.06561592
-0.33509845 0.2641496 0.04851811 0.58941895 -0.018225785 -0.05955851 0.04886256 -0.0013921653
00000000: c6b9 63bd 77cf a43e a2cb 2d3f 2918 78be
00000010: c84e 6f3f c8b2 e43b e742 8abd 0ecf 34bb
00000020: 20ad 043f 53a2 d8bc 9e7a f03e 2c9b c8bc
00000030: 4088 5d3f 1c78 be3c 9b3a 243d f89f 48bd
00000040: c1eb 82bd 6fb1 3f3c 1902 91bd e9d2 d43b
00000050: db41 69bc 5e64 67be f79c 3ebf 29fa 06bf
00000060: 29e9 53bd db06 87bd ed39 d4bc 711e 08bf
00000070: 334a 02bd 1794 52bb 01fe ecbe 828e 44bc
00000080: 1325 af3c ee66 383b 2541 213f e7e0 31bd
00000090: 416f 0ebd a277 23bc e1f3 98bd f915 21bd
000000a0: d8b0 f33c dd4a e53c f397 233c 6245 173d
000000b0: 8f92 3ebd 672c 453f 0a62 c53e fe11 333f
000000c0: 9f93 403d 0fed 78be 997c 6ebe 7762 6e3c
000000d0: 2135 95be 7383 34bf b933 f93c 03ea 25be
000000e0: 0784 85bd c0d0 e7bc 15e4 75bd baff 75bb
000000f0: 891b 18bc e45b 45bf 1ea8 46bf fe05 8abc
00000100: 0ada d2bc 333b 21bd 1c04 8ebd c36d 3d3d
00000110: 274d d5bc d7e0 24bf 5993 33bf 1a99 1e3d
00000120: 8b44 283f f659 2cbf 19c9 243e 9fdc ec3b
00000130: b334 6abd c84a 153e 56b0 0f3f cefc 26bc
00000140: efbc da3c 5782 1abd e3e2 82bd 34db 413d
00000150: 19ca 733c 124c 19bb 33fa 6ebc f0bb ef3c
00000160: d7da 183f 9e61 80bd 0371 78bf fe88 c7bc
00000170: d216 663f 7808 00bb cf89 833e 98ec 53bd
00000180: 5629 693f 5bda e03c 60a4 4abd b705 c1be
00000190: 55cd a03f 7a40 7e3f 9313 54bd 839e 10bd
000001a0: 1214 ed3e f007 90bd e185 8fbc 1e28 f73c
000001b0: 8b3a 0f3f e9fb 8dbc 90d7 6f3d 7c1c f6bc
000001c0: 87a2 b43c d834 543c ce52 4cbf 3f39 50bd
000001d0: f6b2 583e 1614 0d3f 90cc 893c 80b6 20be
000001e0: 25d4 453c 5f69 a13e 4678 7dbc 32ca c13f
000001f0: 66d1 4bbd 128d 1d3e f134 4dbe 6f85 38bc
00000200: 4f9e f4bc a8ce 713e a499 10bf c563 1f3d
00000210: 29fa 3a3e a1d9 b5bf 6356 b33b f412 023f
00000220: de06 863d fc5a 14bd d3c0 b5bc a7e9 ccbc
00000230: 2ed9 b1be e74c ef3b ad94 31bd 35b5 233c
00000240: d800 63bf 57db 9c3e 7392 adbc 0fc6 84bf
00000250: 034b f2bf f528 68bd 7ed3 6fbd 4a84 32bd
00000260: 5cf3 0abf 7fe3 f93e 0383 253d 6efc 623d
00000270: 732e afbd 5267 173f 1a17 093d a636 4b3e
00000280: ee69 b0ba 1acc 25bb 6101 3ebc 6ad7 fe3b
00000290: b111 9abf 6845 533b 3e5d 193f 4fc4 ae3f
000002a0: 97d2 b33d ff32 55bd fba1 7ebf 59d8 483f
000002b0: d97e 9e3c 0c3d 61bd 5097 623e 4ee4 6dbc
000002c0: 8a8c 5bbd 855b 4f3d 79e2 9ebe f5d5 98be
000002d0: d13a 443f 9738 2e3d a151 333d 55f2 f33e
000002e0: 4545 8d3e a206 ee3b 5e9e a1bd 6209 93bd
000002f0: 94b7 82be c987 b13c 2ab3 79bc 572a abbb
00000300: 24d6 483f bf67 8cbd 1051 89bd 0cfd 223d
00000310: bc02 483c faa1 513e 7c08 97bd e3ae 183e
00000320: fdb0 9c3a 2cd9 23bf b6a4 0abd fd60 37bf
00000330: 77dd 16bd 7880 153d 515c 8e3c c104 983c
00000340: 305c 4cbd 8949 abbd af7c 46be 0004 9dbd
00000350: 1518 433d ddfc 3fbd 54b5 afbe ba0f c33a
00000360: 059e 90bc 2427 d8bc 2c5e 4c3d a147 a2bd
00000370: 82a5 873e 0a7c da3e 5cf3 71bd b9d2 8ebc
00000380: 797d c5bc 49f8 733f 6804 babb 69cd 07bf
00000390: 4add 2ebd 9c73 8c3c fdc2 f0bd f3a2 443d
000003a0: 5403 34bd 74d1 fc3c 19f1 94bd 143c a33e
000003b0: 3c41 99bf 9130 c13d 83d8 2e3e 4255 7b3e
000003c0: 3c26 a43d b831 08bf be29 22be 1741 55bd
000003d0: 98fe da3d d71b 7e3c 7510 193f a461 86bd
000003e0: 0692 abbe 9e3e 873e edba 463d 29e4 163f
000003f0: 3e4e 95bc a0f3 73bd 1c24 483d 5179 b6ba

linear3.bias f4 [3]
-0.0018092339 0.007361364 0.013158074
00000000: d123 edba 9937 f13b f694 573c
