nn/max_reward/version_6_points/w32_s_t005_max_reward/actor.pth (torch, 312151 bytes, 6 tensors)

linear1.weight f4 [256, 42]
0	0x3dc43f68	0.09582406
1	0xbd770c41	-0.06031442
2	0x3de88f93	0.113555096
3	0xbce4357c	-0.027857535
4	0xbd8f10ef	-0.06985652
5	0xbd2c1b17	-0.042018022
6	0x3dd3d1a7	0.103427224
7	0x3ac9ea16	0.0015404846
8	0x3e374d85	0.17900665
9	0x3cbe8efc	0.02326154
10	0xbdb5e1a0	-0.08880925
11	0x3dcc32f8	0.09970659
12	0xbdebc4e8	-0.11512166
13	0x3d2b2bc3	0.04178978
14	0x3e2d9a95	0.169535
15	0xbd169b01	-0.036768917
16	0x3e160208	0.14649212
17	0x3e5c1e73	0.2149599
18	0xbdb48014	-0.088134915
19	0x3e93eab9	0.28890017
20	0x3e3372a9	0.17524208
21	0x3d59855b	0.053105693
22	0xbe563758	-0.2091955
23	0x3e2c3583	0.16817288
24	0xbdbc1e2a	-0.09185441
25	0x3dc48cca	0.09597166
26	0x3ab40297	0.0013733682
27	0x3d727fd9	0.059203956
28	0xbd296f2f	-0.0413658
29	0xbdae96bf	-0.08524846
30	0xbcfcbbc1	-0.030851247
31	0x3e34c813	0.17654447
32	0x3c8e9acb	0.017407795
33	0xbb955386	-0.004557076
34	0x3d53b12c	0.051682636
35	0xbdc15af3	-0.09441175
36	0xbdc0b3d8	-0.094093025
37	0x3e5bd81f	0.21469162
38	0xbe11a871	-0.14224412
39	0x3e00830f	0.12549995
40	0x3dad4bf9	0.08461756
41	0xbdc72503	-0.09723856
42	0x3dc4fef9	0.09618945
43	0x3e35af19	0.17742576
44	0xbdc48d30	-0.09597242
45	0x3dfbce14	0.12295166
46	0x3d423e5e	0.04742276
47	0xbc98bee4	-0.018645711
48	0x3d61389b	0.054985624
49	0x3df4e0a8	0.11956912
50	0x3df1e3fb	0.11811062
51	0x3d716448	0.058933526
52	0xbb623051	-0.0034513662
53	0x3e083626	0.13301906
54	0xbdc8be6d	-0.09801946
55	0xbe8ba90a	-0.27277404
56	0xbd6dea97	-0.05808505
57	0x3d0e2789	0.034705672
58	0xbeaeb7d6	-0.3412463
59	0x3de519d3	0.11186566
60	0x3e342546	0.17592344
61	0xbee33d08	-0.443825
62	0xbd3b8dc7	-0.045789506
63	0xbcdaf970	-0.02673027
64	0xbe1e8638	-0.15480888
65	0xbe135f94	-0.14391929
66	0x3db88490	0.09009659
67	0x3e166381	0.14686395
68	0x3d9afcd3	0.07567754
69	0x3e049982	0.12949184
70	0x3e81f710	0.25383806
71	0x3dc53878	0.09629911
72	0xbdec748a	-0.115456656
73	0x3e8e06fc	0.27739704
74	0x3dcfa5b5	0.10139028
75	0xbe12230d	-0.14271183
76	0x3e72d8dd	0.2371554
77	0x3cb5f840	0.022213101
78	0xbda788cd	-0.081803896
79	0xbc2311f2	-0.009953009
80	0x3e51a632	0.20473555
81	0xbcfb924c	-0.030709408
82	0x3e94ef2c	0.29088724
83	0x3c109440	0.008824408
84	0x3c4d508c	0.012531411
85	0x3e80e69b	0.25175938
86	0xbcd684e0	-0.026186407
87	0xbdd076f3	-0.10178938
88	0xbd41a061	-0.04727209
89	0x3cd4411a	0.02590995
90	0xbb5f2d73	-0.003405419
91	0xbd6a5030	-0.05720538
92	0x3e2dea45	0.16983898
93	0xbe27ecec	-0.16398972
94	0x3d837d4d	0.064203836
95	0x3e282c8f	0.16423248
96	0xbe2501f3	-0.16114025
97	0x3e04850a	0.12941375
98	0x3e2dd04a	0.16973987
99	0x3d8bee9f	0.06832623
100	0xbc6d91d0	-0.014500096
101	0x3d897525	0.06711797
102	0x3d9f3cd2	0.077752724
103	0xbe25194c	-0.16122931
104	0x3d35b7f7	0.044364896
105	0xbe2e0a3e	-0.16996095
106	0xbd1d0ba1	-0.03834117
107	0x3e062b92	0.13102558
108	0xbd48a257	-0.048982944
109	0xbe0f1493	-0.13972692
110	0xbcf88872	-0.0303385
111	0x3e0b7fc1	0.13622953
112	0xbdce0091	-0.10058702
113	0x3c48cde1	0.012256117
114	0x3e592e2d	0.21209021
115	0xbe2c1eb5	-0.16808589
116	0x3dda340f	0.10654461
117	0x3c97fdf0	0.018553704
118	0x3da7e44c	0.08197841
119	0xbcea7d95	-0.028624335
120	0xbdb10972	-0.0864438
121	0xbccda71b	-0.025104096
122	0x3d6f4b2e	0.058421306
123	0x3cffd16c	0.03122779
124	0x3cc24e3b	0.023718944
125	0x3da49e01	0.08037949
126	0x3e1b200e	0.15148947
127	0x3d29c08c	0.041443393
128	0x3d941c93	0.072320126
129	0xbd5c4480	-0.053776264
130	0x3dd148e8	0.10218984
131	0x3dd2ab24	0.10286549
132	0xbd6bffb3	-0.0576169
133	0xbe3f0114	-0.18652755
134	0x3e1a0358	0.15040338
135	0xbdb971c4	-0.09054902
136	0xbd9933dc	-0.074805945
137	0x3db97b47	0.090567164
138	0xbd39d189	-0.045365844
139	0xbe5270cb	-0.2055084
140	0x3da6fc08	0.0815354
141	0xbbeec29c	-0.007286383
142	0x3c98a8d9	0.0186352
143	0x3e332193	0.17493276
144	0x3da31f67	0.07964974
145	0xbdd5d36a	-0.10440715
146	0x3d27c53a	0.040959574
147	0x3db89509	0.09012801
148	0xbd833c32	-0.06407966
149	0x3d646ab3	0.05576582
150	0xbd7ba6ae	-0.061438255
151	0x3e782ace	0.24235079
152	0xbd9dde46	-0.07708411
153	0xbd5e9bb1	-0.054347698
154	0x3e563d6b	0.20921867
155	0xbe137be8	-0.14402735
156	0x3dd794ac	0.10526404
157	0x3e58956f	0.21150754
158	0x3df46a66	0.119343564
159	0xbe12cc0f	-0.14335655
160	0x3e183683	0.14864545
161	0xbbc0323b	-0.005865363
162	0x3d902806	0.07038884
163	0x3d279fdc	0.04092394
164	0xbdbb02e2	-0.09131409
165	0xbda1288b	-0.07869061
166	0x3e7fa647	0.24965774
167	0xbd3974e4	-0.04527749
168	0x3cbbad9b	0.02290993
169	0xbea50b33	-0.32235107
170	0x3e09460d	0.13405629
171	0xbcdafc89	-0.026731746
172	0xbd8ec527	-0.069711976
173	0xbe3540c2	-0.17700484
174	0x3c996da1	0.018729033
175	0xbd27406e	-0.04083293
176	0xbdb292f3	-0.087194346
177	0xbc9b1185	-0.018929252
178	0xbba57e51	-0.0050504585
179	0xbcceba55	-0.025235334
180	0x3d1af7e0	0.03783405
181	0xbe4dc804	-0.20095831
182	0xbdb057a2	-0.08610465
183	0x3c5545a7	0.013017095
184	0xbe65b099	-0.22430648
185	0x3d57f095	0.05271967
186	0x3dbf78d8	0.09349221
187	0xbdc54c12	-0.0963365
188	0x3db551fc	0.08853528
189	0xbd5d8e75	-0.054090936
190	0xbeaf254b	-0.3420814
191	0x3ddf7414	0.10910812
192	0x3dd43b34	0.103628546
193	0x3d7a11ed	0.06105225
194	0xbdb18fe7	-0.08670025
195	0xbddaa226	-0.106754586
196	0x3e28aba8	0.16471732
197	0xbc9f8482	-0.019472364
198	0x3e02d78f	0.12777542
199	0x3e4124ba	0.18861666
200	0x3de1dbb4	0.11028233
201	0x3da15829	0.07878143
202	0x3e395d48	0.1810199
203	0xbd9507cb	-0.07276877
204	0xbce2a996	-0.027668756
205	0x3c949b33	0.018140411
206	0x3e0a6d46	0.13518247
207	0xbd137e4b	-0.036009114
208	0x3db5269a	0.08845253
209	0xbde3faa5	-0.11131791
210	0xbdeb4579	-0.1148786
211	0x3e202b2d	0.1564147
212	0xbde7a2a1	-0.11310316
213	0x3e86fd14	0.26364958
214	0xbc7ee973	-0.015558588
215	0xbd00e9db	-0.031473022
216	0xbe27ad9d	-0.16374822
217	0x3e43977e	0.19100758
218	0x3d74bf3c	0.059752688
219	0xbddae479	-0.10688109
220	0xbd720cd1	-0.059094254
221	0xbb02244d	-0.0019858063
222	0x3e095e14	0.13414794
223	0xbe3d6d25	-0.18498667
224	0xbd9e4dd2	-0.07729687
225	0x3e3b9457	0.18318306
226	0xbdd6ba59	-0.10484762
227	0x3d50fd86	0.05102303
228	0x3c90d8e0	0.017681539
229	0xbe48b4b3	-0.19600181
230	0x3d2f3d4e	0.042783074
231	0x3deb6103	0.11493113
232	0x3e65dc23	0.22447257
233	0xbcf348d0	-0.029697806
234	0x3e2f9680	0.17147255
235	0xbea30285	-0.3183786
236	0x3c37c41f	0.0112161925
237	0xbda9c5d9	-0.082896896
238	0xbd8d565e	-0.06901239
239	0x3e00c3e1	0.12574722
240	0x3e1bc379	0.15211286
241	0x3dee4be3	0.11635568
242	0xbe00e0e5	-0.1258579
243	0xbbb279f3	-0.0054466664
244	0xbda39e84	-0.07989219
245	0xbe13ceae	-0.14434311
246	0xbd6dafb0	-0.058028877
247	0x3dde833d	0.108648755
248	0x3dbe8915	0.0930349
249	0xbdbe81f6	-0.09302132
250	0xbe795624	-0.24349266
251	0x3b923139	0.004461434
252	0x3d3b542d	0.045734573
253	0xbe0904ed	-0.13380785
254	0xbd8084a7	-0.062753014
255	0x3e2d7a8b	0.16941278

linear1.bias f4 [256]
0	0x3c036230	0.008019015
1	0xbdb4c852	-0.088272706
2	0x3ccdc93b	0.025120368
3	0xbcf145ee	-0.02945229
4	0x3e257c71	0.16160752
5	0xbcc4b410	-0.024011642
6	0x3d973f01	0.07385064
7	0xbde5e82c	-0.11225924
8	0x3d8b9249	0.06815011
9	0xbdf135ea	-0.117778614
10	0x3da22676	0.07917492
11	0x3da1a027	0.07891875
12	0x3b881bec	0.004153719
13	0x3ca4c2b6	0.020112377
14	0xbb79fd75	-0.0038145457
15	0xbd501c70	-0.05080837
16	0xbc1fbf6b	-0.009750227
17	0xbe1032f3	-0.14081936
18	0x3c884a0a	0.016636867
19	0x3c01125c	0.007877912
20	0xbd31f4e0	-0.04344642
21	0x3d3dd63c	0.046346888
22	0xbe086259	-0.13318767
23	0xbdc64701	-0.09681512
24	0xbcd94812	-0.026523624
25	0xbd8f8f80	-0.07009792
26	0x3da4a50f	0.08039295
27	0xbde94ce2	-0.11391617
28	0xbdb95096	-0.09048574
29	0x3bb5f8fc	0.005553363
30	0xbe096255	-0.13416417
31	0xbdbe6abd	-0.092977025
32	0x3dd623d9	0.10456056
33	0xbd82d4d5	-0.06388251
34	0x3dc802c3	0.09766152
35	0x3e0b7dab	0.13622157
36	0x3e363e62	0.17797235
37	0x3dd83fdd	0.10559056
38	0xbbb126ac	-0.0054062214
39	0x3c70c0ae	0.014694376
40	0xbdc9c6ea	-0.09852393
41	0x3ce1277e	0.027484652
42	0xbd7ef384	-0.062243953
43	0x3d5d052e	0.053960018
44	0x3e026f49	0.12737764
45	0x3d858d0d	0.06521044
46	0x3dda0b5a	0.106466964
47	0xbd3f4c31	-0.04670352
48	0x3dc6a5f3	0.09699621
49	0x3dfd4010	0.123657346
50	0x3df4401a	0.11926289
51	0xbdb0d741	-0.086348064
52	0xbdcf3980	-0.10118389
53	0x3a29ceed	0.0006477673
54	0x3db8e02d	0.09027133
55	0x3ced6f88	0.028983846
56	0xbe035db6	-0.12828717
57	0x3d4aa5ec	0.04947464
58	0x3d8df3de	0.069312796
59	0x3d78a857	0.060707416
60	0x3d90a016	0.07061784
61	0x3e1f2f25	0.15545328
62	0xbd83d6b5	-0.064374365
63	0xbcc4e929	-0.02403696
64	0xbcfb7eae	-0.030700054
65	0x3e05a335	0.1305054
66	0x3dcc6cbb	0.09981676
67	0x3dce41ea	0.10071166
68	0x3e26f39a	0.16303864
69	0x3dea89fd	0.114521004
70	0xbc6777a4	-0.014127646
71	0xbb26a5bc	-0.0025428375
72	0x3df322f0	0.11871898
73	0xbd486061	-0.04892004
74	0x3d0fa373	0.035067987
75	0xbc136f86	-0.008998757
76	0xbd4950fe	-0.049149506
77	0xbde8d543	-0.113688014
78	0x3dcab35e	0.09897493
79	0xbd27f997	-0.04100951
80	0xbd81faaf	-0.06346642
81	0xbd09855c	-0.033574447
82	0x3d7b1e5a	0.061308242
83	0xbd4eb899	-0.050469015
84	0x3e3135ce	0.17305681
85	0x3d9f7410	0.07785809
86	0x3e0834b7	0.13301359
87	0xbd55f94a	-0.052239694
88	0x3e1ed005	0.1550904
89	0xbd141d2f	-0.036160644
90	0x3d0513bc	0.032489523
91	0x3dddc3c7	0.10828357
92	0x3cdffdca	0.027342696
93	0x3de88ec7	0.113553576
94	0xbdb1cb1e	-0.0868132
95	0x3d6c52da	0.0576962
96	0xbe1cfde2	-0.15331224
97	0xbe209506	-0.15681848
98	0x3ccd2c05	0.025045404
99	0x3d98da4f	0.07463514
100	0xbdd58179	-0.104250856
101	0xbcc7b6e2	-0.024379198
102	0xbcb8b83b	-0.022548785
103	0x3cd305c9	0.025759595
104	0xbd9fbae0	-0.077993155
105	0xbdbcaca3	-0.09212615
106	0xbc79ce39	-0.015246921
107	0xbcadb198	-0.021202847
108	0x3ceb170f	0.028697519
109	0x3dbfd7fd	0.09367368
110	0x3ce40d71	0.02783844
111	0x3e37dd64	0.17955548
112	0x3dad39aa	0.08458264
113	0xbe0d72f1	-0.13813378
114	0x3cd0a3a4	0.025468655
115	0x3defa3cd	0.117011644
116	0x3d2b3517	0.041798677
117	0x3d83bd52	0.06432594
118	0xbe178a32	-0.14798811
119	0x3dcb81cf	0.099368684
120	0x3d3b0084	0.04565479
121	0xbdc6e693	-0.09711947
122	0xbd358b33	-0.044322204
123	0x3e02c263	0.12769465
124	0xbe32b17e	-0.1745052
125	0x3c9a3c6b	0.018827638
126	0x3dd3b457	0.103371315
127	0x3dcd8702	0.10035516
128	0x3d2c02c5	0.04199483
129	0x3e0dc89e	0.1384606
130	0x3d95ca2b	0.07313951
131	0xbdf78ecc	-0.12087783
132	0x3e433ea6	0.19066867
133	0xbd4e9025	-0.050430436
134	0xbcfbebf0	-0.030752152
135	0x3d394ef8	0.045241326
136	0x3d858cbe	0.06520985
137	0x3dd01c65	0.10161666
138	0x3dbc21b8	0.09186119
139	0x3dc35b64	0.09538916
140	0xbda544af	-0.08069741
141	0x3e0ff601	0.14058687
142	0x3e0ccdc1	0.13750364
143	0xbdcc8430	-0.0998615
144	0xbcfe622a	-0.031052668
145	0xbd119169	-0.035539065
146	0x3b8fd765	0.0043896907
147	0x3d0632c4	0.032763258
148	0x3dc95459	0.09830541
149	0xbd9f97b8	-0.0779261
150	0xbbc42373	-0.005985671
151	0xbc750631	-0.014955089
152	0xbd8ce4b9	-0.06879563
153	0x3d1b1baf	0.037868198
154	0x3e0935b3	0.13399391
155	0x3e35553e	0.17708299
156	0xbd8fe5f7	-0.07026284
157	0x3d8d59cb	0.06901892
158	0x3e20683b	0.15664761
159	0xbd63fa8a	-0.055658855
160	0xbd07f1f0	-0.033189714
161	0xbdb062b9	-0.0861258
162	0x3d566ed0	0.052351773
163	0x3e07e897	0.1327232
164	0x3d2b79fa	0.041864373
165	0xbbc5ba37	-0.0060341614
166	0xbcdab6cf	-0.026698498
167	0x3d6adc2b	0.057338875
168	0xbdce5714	-0.100752026
169	0x3dc332f5	0.09531204
170	0xbc2f8416	-0.010712644
171	0x3e2d4267	0.16919862
172	0xbd9d047a	-0.076668695
173	0x3dce5056	0.100739166
174	0xbd09cfec	-0.033645555
175	0x3c715108	0.014728792
176	0x3cd20bfa	0.025640476
177	0xbdfe23ba	-0.12409158
178	0xbd956434	-0.07294503
179	0xbd42948d	-0.04750495
180	0xbd66f41b	-0.05638514
181	0xbc6bb5f2	-0.014386641
182	0x3da5b7ab	0.080916725
183	0x3d634680	0.055487156
184	0x3dfec00e	0.12438975
185	0x3d32bc34	0.043636516
186	0xbd2c4bda	-0.042064525
187	0xbd476237	-0.04867765
188	0xbc204fc5	-0.009784644
189	0x3dff7e68	0.12475282
190	0x3e232053	0.159303
191	0x3df123b0	0.11774385
192	0x3e352905	0.17691429
193	0x3d85780d	0.065170385
194	0xbdc67dcc	-0.096919626
195	0x3de62129	0.112367935
196	0x3d6afdd5	0.05737098
197	0x3e086108	0.13318264
198	0x3e39359f	0.18086861
199	0x3d960c54	0.0732657
200	0x3e552384	0.2081433
201	0xbdf41523	-0.11918094
202	0xbc86ed66	-0.016470622
203	0xb99deebd	-0.00030123247
204	0xbdfc5c7f	-0.1232233
205	0xbd783e64	-0.060606375
206	0x3afec582	0.0019437524
207	0xbc50caa8	-0.0127436295
208	0x3d954d92	0.07290186
209	0x3db7c9d9	0.08974046
210	0x3e288656	0.16457495
211	0xbdecaf56	-0.1155688
212	0xbd571fb7	-0.05252048
213	0xbcf23258	-0.029565021
214	0xbda0edcd	-0.07857857
215	0x3d34b34e	0.04411631
216	0xbdfb72f7	-0.12277787
217	0xbdcb7df3	-0.09936132
218	0xbdf49609	-0.119426794
219	0x3e0a699f	0.13516854
220	0x3de1b0da	0.1102006
221	0x3e153157	0.14569603
222	0x3df3b2ee	0.118993625
223	0x3c5618c8	0.013067432
224	0x3e180071	0.14843918
225	0x3bf182ae	0.0073703146
226	0x3dc4fd4d	0.09618626
227	0xbdb20369	-0.08692057
228	0x3dd1e423	0.10248592
229	0x3d1b2c37	0.037883963
230	0xbdb7083b	-0.08937117
231	0xbc454426	-0.012040174
232	0xb9c12ca5	-0.0003684509
233	0x3d88a86c	0.06672749
234	0xbd2ffad7	-0.04296383
235	0xbc583931	-0.013197229
236	0x3cf57ada	0.029965807
237	0x3daae993	0.08345332
238	0xba041133	-0.0005037963
239	0x3e23e4e4	0.16005284
240	0x3e04e68d	0.12978573
241	0x3de98582	0.11402418
242	0xbdcf7e7f	-0.10131549
243	0xbdd119aa	-0.10209973
244	0x3dd83124	0.10556248
245	0x3d6399fb	0.05556677
246	0xbd2af9f9	-0.0417423
247	0x3c405998	0.011740111
248	0xbdfe634b	-0.124212824
249	0x3d0742e4	0.033022776
250	0xbd1a7835	-0.037712295
251	0x3dc145b1	0.09437121
252	0x3a0e01b6	0.0005417125
253	0x3d22f662	0.03978575
254	0x3e425f39	0.18981637
255	0x3dc43f7d	0.09582422

linear2.weight f4 [256, 256]
0	0xbd67adc1	-0.05656219
1	0x3d2d6de1	0.042341117
2	0xbcc9d856	-0.02463929
3	0x3d6d9768	0.05800572
4	0x3a9cbddb	0.0011958437
5	0x3c8b9ad5	0.017041603
6	0xbc964861	-0.01834506
7	0xbda28acf	-0.07936632
8	0x3a2c4b68	0.00065725157
9	0x3db451cb	0.08804663
10	0x3d8e84e2	0.06958939
11	0x3d96987f	0.07353305
12	0xbc845ec8	-0.016158476
13	0xbc5b2f13	-0.013377923
14	0xbdbd8f21	-0.09255815
15	0x3c8b4e48	0.0170051
16	0xbd48d87f	-0.04903459
17	0xbd38afaa	-0.0450894
18	0xbd0124f4	-0.031529382
19	0xbc9b63ad	-0.018968428
20	0x3c3103f3	0.010804164
21	0xbd12df4b	-0.03585748
22	0x3c8a1b43	0.016858703
23	0x3d8669d0	0.06563151
24	0xbd9c2862	-0.0762489
25	0x3c6c1449	0.014409133
26	0x3d295eb7	0.041350093
27	0xbd38fd26	-0.045163296
28	0x3db4b367	0.08823281
29	0xbe107f94	-0.14111167
30	0xbd2d503d	-0.04231285
31	0xbd3f3137	-0.046677794
32	0x3d9c83d0	0.07642329
33	0x3dca02b8	0.098638
34	0x3db3008c	0.08740339
35	0x3d9747d2	0.073867455
36	0x3b7d9e3e	0.0038699056
37	0xbc9bf646	-0.01903833
38	0xbd85cc5a	-0.065331176
39	0x3ca238a4	0.019802399
40	0xbc7a6587	-0.015282995
41	0x3db0e94c	0.08638248
42	0x3dc9b798	0.09849471
43	0xbc32d048	-0.010913916
44	0xbcea6cfe	-0.028616425
45	0xbb5efe8d	-0.0034026236
46	0x3ca9a88e	0.020710256
47	0x3d84635f	0.06464266
48	0xbc8d629a	-0.017258931
49	0x3d087a11	0.033319537
50	0x3c3fe153	0.011711436
51	0xbd2e0ee5	-0.042494673
52	0x3cb981f8	0.022644982
53	0x3dd9ce0f	0.10635006
54	0xbd291f5e	-0.04128968
55	0x3cfdc765	0.030978868
56	0x3db3e585	0.08784012
57	0xbdb71dc0	-0.08941221
58	0x3d457e4b	0.048216145
59	0x3c164bb7	0.009173325
60	0x3d0ae0ed	0.033905912
61	0xbde6ef29	-0.11276085
62	0x3d16794f	0.036736783
63	0xbcf288aa	-0.029606182
64	0x3d959e6c	0.07305607
65	0x3dbff44c	0.09372768
66	0x3dbd1292	0.09232058
67	0xbb1d4637	-0.002399815
68	0x3d2a763b	0.04161666
69	0xbd14bc89	-0.036312614
70	0xbd4bfca8	-0.0498015
71	0x3d7297d8	0.05922684
72	0x3daed830	0.08537328
73	0x3ce6732a	0.028131086
74	0x3b04f01e	0.0020284723
75	0x3e1f09ea	0.15531126
76	0x3abb69ce	0.00142985
77	0x3cbc7b1a	0.023007918
78	0x3b2b422c	0.002613197
79	0x3d5c1b2b	0.053736847
80	0xbbe89996	-0.007098387
81	0xbc2b6b4b	-0.010462592
82	0xbd98c33c	-0.07459113
83	0xbceab53a	-0.028650869
84	0x3d56eccb	0.052471917
85	0x3d1589c0	0.03650832
86	0xbc82b51c	-0.0159555
87	0x3e1acf33	0.15118103
88	0xbc20c3c3	-0.009812298
89	0x3cb6e3d0	0.022325426
90	0xbc2f377c	-0.010694381
91	0xbd68fed2	-0.05688364
92	0x3d12d7f5	0.035850484
93	0xbd18e667	-0.037329104
94	0xbd8f783c	-0.07005355
95	0x3d7858f4	0.060631707
96	0xbdbf9ba3	-0.09355857
97	0x3c0f81a5	0.008758937
98	0x3ceb4b93	0.02872256
99	0xbb84e0ae	-0.004055104
100	0x3d32661d	0.043554414
101	0xbc6a6e6b	-0.014308552
102	0xbd96e8f2	-0.073686495
103	0x3d8057d8	0.06266755
104	0x3c999713	0.018748796
105	0x3d66a571	0.05631012
106	0x3cac8b64	0.02106256
107	0xbd5c75d6	-0.053823315
108	0xbd9822f6	-0.07428543
109	0x3d978203	0.07397845
110	0xbc9a5643	-0.01883996
111	0xbbae707a	-0.005323467
112	0xbd524eb5	-0.051344592
113	0xbd511c46	-0.051052354
114	0xbdcc0eaa	-0.099637344
115	0xbdc4bd4d	-0.09606419
116	0x3c72a2dc	0.0148093365
117	0x3d94c2f8	0.0726375
118	0x3cf3cc18	0.029760405
119	0x3b8aec7c	0.004239617
120	0x3a386775	0.0007034459
121	0xbbb27d12	-0.0054470384
122	0x3c8d40d6	0.01724283
123	0xbd330ece	-0.04371529
124	0x3a6f35ad	0.0009125125
125	0x3e0b1628	0.1358267
126	0x3dbb6854	0.091507584
127	0xb8ed89b4	-0.0001132669
128	0xbc81f899	-0.01586561
129	0x3dbc27a4	0.09187248
130	0x3d699d8e	0.05703502
131	0x3c158872	0.009126769
132	0x3e012b6c	0.1261422
133	0x3c3e7e09	0.011626729
134	0xbdbf42be	-0.09338902
135	0xbc5f3731	-0.0136239985
136	0x3dfafe1e	0.122555
137	0x3c833c9c	0.016020112
138	0xbdc9cf36	-0.098539755
139	0x3d628ab2	0.05530805
140	0xbdad8d6d	-0.084742405
141	0x3da2fef2	0.07958783
142	0x3cbdf588	0.023188367
143	0x3a0b1c17	0.0005306615
144	0x3d29841c	0.041385755
145	0xbd00ca31	-0.031442825
146	0xbc817695	-0.015803615
147	0x3da78fa0	0.08181691
148	0x3ceeb547	0.029139174
149	0xbda660f1	-0.08123959
150	0x3d37bf11	0.04485995
151	0x3e168fba	0.14703265
152	0xbbb4f487	-0.005522314
153	0xbd27628e	-0.040865473
154	0x3d7d9005	0.061904926
155	0x3d5f3e8b	0.054503005
156	0x3b8e8007	0.004348758
157	0xbd55ce21	-0.052198533
158	0xbd84bc28	-0.064812005
159	0x3c81d19b	0.015847018
160	0xbcb0fb07	-0.021604074
161	0x3d9dff4b	0.07714709
162	0xbd891918	-0.066942394
163	0xbce0cfd7	-0.027442856
164	0xbd550998	-0.052011102
165	0x3c9833ec	0.018579446
166	0x3d4e8e91	0.05042893
167	0x3d19ed95	0.03758009
168	0x3da73fc9	0.08166463
169	0x3b846a04	0.0040409584
170	0xbdadfed3	-0.084958695
171	0x3df64200	0.12024307
172	0xbd6cdff0	-0.05783075
173	0x3a24b428	0.0006282949
174	0xbd407ec8	-0.046995908
175	0x3cb0bdf7	0.021574957
176	0x3c089b5a	0.00833782
177	0x3c110c7c	0.008853074
178	0xbd243694	-0.040091112
179	0xbd6ac261	-0.05731428
180	0x3db8f9fe	0.09032057
181	0xbce9d80f	-0.028545408
182	0x3bbf3a2d	0.0058357925
183	0x3d7b1e57	0.06130823
184	0xbd415cfc	-0.047207817
185	0xbce3158c	-0.027720235
186	0x3d988434	0.07447091
187	0x3dd83865	0.105576314
188	0xbbeb7ed4	-0.00718675
189	0x3d091a81	0.03347254
190	0x3bc408e9	0.0059825075
191	0x3d3be124	0.045869008
192	0x3d28cfef	0.041213926
193	0x3c3354bc	0.010945495
194	0x3bbd1629	0.005770464
195	0x3da7a300	0.08185387
196	0x3dc11ab3	0.094289206
197	0xbb8be13d	-0.004268794
198	0x3dc728e9	0.097246
199	0x3dce67ec	0.10078415
200	0xbb2b674e	-0.0026154104
201	0x3d929314	0.07156959
202	0xbd665444	-0.056232706
203	0x3d7f51b5	0.06233378
204	0x3cb71324	0.022347994
205	0xbd9c6a1b	-0.076374255
206	0x3ce9bd2a	0.028532583
207	0xbda6a938	-0.08137745
208	0x3c6cd273	0.014454472
209	0xbcef4033	-0.029205417
210	0x3d3bbb94	0.045833185
211	0xbc9b14e3	-0.018930858
212	0xbdaabf16	-0.08337228
213	0x3d9ed98b	0.07756337
214	0x3d9cc455	0.07654635
215	0xbc8426b9	-0.016131746
216	0x3d1a8352	0.037722893
217	0x3dc736fc	0.09727284
218	0xbc3087d1	-0.010774569
219	0x3b8f30f6	0.0043698503
220	0x3c28f472	0.010312187
221	0x3ce57213	0.028008496
222	0x3cae21d8	0.021256372
223	0xbd181ebd	-0.03713869
224	0xbc9fa36a	-0.019487102
225	0xbd794dd5	-0.060865242
226	0x3da4afdb	0.08041354
227	0x3c7b8ae6	0.01535294
228	0x3c43fb16	0.011961719
229	0xbccc9639	-0.024973975
230	0x3d8fcc0f	0.07021343
231	0x3d25e645	0.040502805
232	0x3d60b4ea	0.054860033
233	0x3da33efa	0.07970996
234	0x3c68831b	0.014191414
235	0x3dd30c6c	0.10305104
236	0xbd0b8ff1	-0.03407282
237	0x3d039706	0.03212645
238	0xbbac8ee0	-0.0052660555
239	0x3d32ca7f	0.043650147
240	0x3dc9793a	0.09837575
241	0xbd8da484	-0.069161445
242	0xbb712c2b	-0.0036800008
243	0xbd8eec46	-0.06978659
244	0x3ba9d79f	0.0051831747
245	0xbc8dca71	-0.017308446
246	0x3c7121e9	0.0147175575
247	0x3d552296	0.052034937
248	0xbddb0cd1	-0.10695804
249	0xbd2ec8cf	-0.042671975
250	0x3d0eb032	0.034836
251	0x3d6dac5c	0.058025703
252	0xbd3b25e8	-0.045690447
253	0x3d812d88	0.063075125
254	0xbc331628	-0.010930575
255	0x3d3d85c2	0.04627014

linear2.bias f4 [256]
0	0xba623f10	-0.0008630613
1	0xbd162d8b	-0.036664527
2	0xbcaa559b	-0.020792773
3	0xbcbdae16	-0.0231543
4	0xbd549768	-0.051902205
5	0xbd9488e7	-0.072526745
6	0xbb3106ca	-0.0027012103
7	0x3ccbce61	0.024878683
8	0x3d178fd1	0.03700239
9	0xbd30aab4	-0.043131545
10	0x3d9e67f5	0.07734672
11	0xbcf1c72a	-0.029513914
12	0x3d9a6d82	0.07540418
13	0xbccd4dff	-0.025061605
14	0xbd58d302	-0.052935608
15	0x3d6fe1d3	0.058564972
16	0x3d97e5d3	0.07416882
17	0x3cff81e8	0.031189874
18	0xbd87e022	-0.06634547
19	0x3d9c0548	0.07618195
20	0x3cbc4c97	0.02298574
21	0x3cf1ae69	0.02950211
22	0xbc88cdff	-0.01669979
23	0xbd701d58	-0.058621734
24	0x3d9279d3	0.071521424
25	0xbc5925c3	-0.013253632
26	0x3cb1cf52	0.021705303
27	0xbc15a768	-0.009134151
28	0x3d9d49fe	0.076801285
29	0xbd695118	-0.056962103
30	0x3b93ebc2	0.0045141885
31	0x3d182340	0.037142992
32	0x3d60ee91	0.054915015
33	0xbd7ff6ff	-0.062491413
34	0xbd0d0662	-0.034429915
35	0xbe102d33	-0.14079742
36	0xbde24763	-0.11048772
37	0x3da0aa39	0.078449674
38	0xbd0449ac	-0.03229682
39	0xbd88c2a8	-0.06677753
40	0x3d946ecd	0.07247696
41	0x3da63c7c	0.08117005
42	0x3b9966b6	0.0046814336
43	0xbc56aa69	-0.013102152
44	0xbba5cdf7	-0.0050599533
45	0xbd60a764	-0.054847136
46	0xbd10e12e	-0.035370998
47	0xbc1914fc	-0.009343382
48	0x3c3c75b9	0.011502677
49	0x3d2ee1a8	0.04269567
50	0x3cc9e647	0.024645938
51	0x3c81ee17	0.0158606
52	0xbd153287	-0.03642514
53	0xbbcbd300	-0.0062202215
54	0xbd3b0d8b	-0.045667212
55	0xbd5e949e	-0.05434095
56	0x3cd0b533	0.025477028
57	0xbccb0e0b	-0.02478697
58	0xbc67a2c4	-0.014137927
59	0x3d214986	0.039376758
60	0x3c5bd647	0.013417787
61	0xbd889c31	-0.06670416
62	0x3d185963	0.03719462
63	0x3c515de7	0.012778736
64	0x3c9e0ae4	0.019292302
65	0x3cff78a1	0.03118545
66	0x3d3a5019	0.045486543
67	0x3b0ef404	0.0021812925
68	0x3cc3ffa6	0.023925614
69	0x3bf9fde1	0.0076291417
70	0xbca89047	-0.02057661
71	0x3bb99d97	0.005664538
72	0x3aff3a3c	0.0019472311
73	0x3d0c75a3	0.034291875
74	0x3c3ec09d	0.011642602
75	0xbd27a95b	-0.040932994
76	0xbcf5d7f2	-0.030010197
77	0x3d104b79	0.035228226
78	0x3d928b1c	0.07155439
79	0x3bef0c52	0.00729517
80	0x3d911509	0.0708409
81	0x3ce9e8d8	0.028553411
82	0xbc162131	-0.009163187
83	0xbd7fb971	-0.06243271
84	0xbd8ad4e6	-0.067788884
85	0x3d1fe9d6	0.039041363
86	0x3c315ce4	0.0108253695
87	0xbd578a95	-0.052622396
88	0x3daaee59	0.083462425
89	0x3dade2ae	0.08490501
90	0xbb78ea42	-0.0037981425
91	0xbaeeead4	-0.0018227943
92	0xbcce3b3b	-0.025174728
93	0xbbbc3e53	-0.0057447343
94	0x3bc10557	0.005890529
95	0xbc9b4c18	-0.018957183
96	0x3d04994b	0.032372754
97	0xbc645e6f	-0.01393853
98	0x3cd81b3e	0.026380178
99	0x3d1e6456	0.038669907
100	0x3d59f5c7	0.053212907
101	0x3d63adab	0.055585545
102	0xbd5160a4	-0.051117554
103	0x3c931558	0.017954513
104	0x3c4c497c	0.012468692
105	0x3d0c5702	0.034262665
106	0x3cc24b8c	0.023717664
107	0x3d06d52a	0.032918133
108	0x3d27262a	0.04080788
109	0xbc320851	-0.010866241
110	0xbc4659aa	-0.0121063385
111	0xbcd209ff	-0.025639532
112	0xbca6a322	-0.02034146
113	0xbd6e18f4	-0.058129266
114	0xbd6d52e8	-0.057940394
115	0x3c4e08dc	0.012575354
116	0x3ac5647a	0.0015059852
117	0xbd064eb6	-0.03278991
118	0x3cab1f02	0.02088881
119	0x3d15e4b4	0.03659506
120	0x3d161021	0.036636475
121	0x3da99e85	0.08282188
122	0x3da41ea2	0.08013655
123	0x3d2ce498	0.04221019
124	0xbbdaf1a5	-0.0066816383
125	0x3cb34b82	0.02188659
126	0xbd927a9b	-0.071522914
127	0x3d1ad775	0.037803132
128	0x3c336476	0.010949245
129	0xbb7ecd04	-0.0038879523
130	0x3c9e3c2f	0.019315807
131	0xbd79f685	-0.061026115
132	0x3c50d9e8	0.012747265
133	0xbccb32ec	-0.024804555
134	0x3c40cd78	0.011767738
135	0x3c84362c	0.016139112
136	0x3d4d9257	0.05018839
137	0x3c3cf088	0.0115319565
138	0xbd7ba474	-0.06143613
139	0x3cfb276d	0.030658448
140	0x3c63d33d	0.013905344
141	0xbd2a5c6f	-0.041592058
142	0x3cb35665	0.021891782
143	0x3c3ef61e	0.011655359
144	0xbdb12bdd	-0.086509444
145	0xbd83c4d9	-0.0643403
146	0x3cb090b4	0.021553375
147	0x3cac0f51	0.021003397
148	0x3dc71933	0.09721603
149	0xbcfff727	-0.031245781
150	0x3c9d66af	0.019214002
151	0x3ca292e6	0.019845437
152	0xbbf33394	-0.00742192
153	0x3d735b6d	0.059413362
154	0xbccfe3fb	-0.025377264
155	0x3d7552eb	0.05989353
156	0xbca486e7	-0.020083858
157	0xbc00ede9	-0.007869222
158	0xbcb09219	-0.02155404
159	0x3b13cdff	0.0022553203
160	0xbd0ec3ee	-0.03485482
161	0xbd029674	-0.031881765
162	0xbc6c2569	-0.014413216
163	0xbd333d35	-0.043759543
164	0x3d5c66b8	0.053808898
165	0xbdf4f8d2	-0.11961521
166	0xbd888ebe	-0.06667851
167	0xbbc92ff1	-0.0061397483
168	0xba967f46	-0.0011482022
169	0xbd73d8c2	-0.05953289
170	0xbd72d208	-0.059282333
171	0x3cc1d8ae	0.023662891
172	0x3c08c821	0.008348496
173	0x3d9adc5e	0.07561563
174	0x3c8b4923	0.017002648
175	0xbd89e323	-0.06732776
176	0xbd276c83	-0.04087497
177	0xbd3100c6	-0.04321363
178	0xbd7ef54e	-0.06224566
179	0x3d9ec519	0.07752437
180	0x3ccc8f20	0.024970591
181	0xbd649c62	-0.0558132
182	0xbd361e7f	-0.044462677
183	0x3d44fda6	0.04809346
184	0xbd2820c9	-0.04104689
185	0xbded326c	-0.11581883
186	0xbd034ab9	-0.032053683
187	0xbcc74279	-0.024323689
188	0xbd052b25	-0.03251185
189	0xbbe95648	-0.007120881
190	0x3c232546	0.009957617
191	0xbc9abceb	-0.018888911
192	0x3d22c91e	0.03974258
193	0xbd2048c0	-0.03913188
194	0x3c2f7481	0.010708929
195	0x3d90f698	0.07078284
196	0x3d644a97	0.055735197
197	0x3c870a2d	0.016484344
198	0x3ce21172	0.02759621
199	0xbd554979	-0.052072022
200	0x3d565ab0	0.05233258
201	0x3be26a68	0.0069096573
202	0x3d52feb9	0.051512454
203	0x3d38a857	0.045082416
204	0xbc7e000b	-0.01550294
205	0xbd8cde8a	-0.068783835
206	0x3d4281ff	0.047487255
207	0xbc21efa7	-0.009883798
208	0x3c1340a2	0.008987578
209	0x3cd018ec	0.025402509
210	0xbc68533c	-0.014180001
211	0xbc96023a	-0.018311609
212	0xbc7bc286	-0.015366202
213	0xbd998dee	-0.07497774
214	0x3d17aeeb	0.03703205
215	0xbd3b9c08	-0.0458031
216	0x3cd9e0fd	0.02659654
217	0xbcc4bd9f	-0.0240162
218	0xbd078d5c	-0.033093795
219	0xbd48d408	-0.049030334
220	0x3cdbe68d	0.026843334
221	0xbc886de5	-0.016653964
222	0x3ce4aad4	0.027913488
223	0x3c2db4ea	0.010602215
224	0x3cc0add7	0.023520393
225	0xbcd4c65a	-0.025973488
226	0x3d8df60b	0.069316946
227	0x3cbe73c1	0.023248555
228	0xbd1a5b18	-0.03768453
229	0x3ceef3ff	0.02916908
230	0x3c49d148	0.012317963
231	0x3d2d11f3	0.042253446
232	0xbcd373cb	-0.02581205
233	0xbd30b024	-0.04313673
234	0x3d04042c	0.03223054
235	0x3c51a4a9	0.012795606
236	0x3d68999d	0.056787122
237	0x3cd90ce3	0.026495403
238	0xbe1b1df8	-0.15148151
239	0x3d2a7821	0.04161847
240	0x3c94fe47	0.018187655
241	0x3d03e474	0.03220029
242	0x3d0bf545	0.034169454
243	0xbc87cf77	-0.01657842
244	0xbd4260ba	-0.047455527
245	0xbda79da7	-0.08184367
246	0x3b5785fd	0.003288626
247	0x3d41ad8c	0.047284648
248	0xbd83ea0a	-0.06441124
249	0x3d05bcde	0.03265082
250	0xbd03f30b	-0.032214206
251	0xbd3ac328	-0.04559627
252	0x3da8447a	0.08216186
253	0x3bd3ac7b	0.0064597703
254	0xbd45ddae	-0.048307113
255	0x3c7afefb	0.015319581

linear3.weight f4 [3, 256]
0	0x3da7b788	0.08189303
1	0x3e2b1994	0.16708976
2	0xbde4129c	-0.11136362
3	0xbded81d6	-0.1159703
4	0xbd195524	-0.037434712
5	0x3db36c2b	0.08760866
6	0x3e523bae	0.20530578
7	0x3d1fcd6b	0.03901426
8	0x3d6c5541	0.057698492
9	0xbd96409f	-0.07336544
10	0x3dc607f1	0.096694835
11	0xba827478	-0.0009952923
12	0x3c832451	0.016008528
13	0xbd17326e	-0.036913328
14	0xbd5fc102	-0.054627426
15	0x3e63d5f0	0.2224958
16	0xbe1945c7	-0.14968024
17	0x3bed9e5a	0.007251543
18	0x3e53947d	0.20662113
19	0x3d606c37	0.0547907
20	0x3d98c0f4	0.07458678
21	0x3d42fb74	0.047603086
22	0xbe1eab43	-0.15495019
23	0xbe73ae9a	-0.23797074
24	0xbca47cd4	-0.020079054
25	0xbc4ea044	-0.0126114525
26	0xbe4c81ce	-0.19971392
27	0xbe16adf7	-0.147148
28	0xbd8503e9	-0.064948864
29	0xbd7cdcaf	-0.061733898
30	0x3e943b54	0.28951514
31	0x3e260273	0.16211872
32	0x3d286ee9	0.041121397
33	0xbd5ac2ca	-0.05340842
34	0xbd1be833	-0.03806324
35	0x3e991ec9	0.299063
36	0x3e797428	0.24360716
37	0x3e26d4e8	0.16292155
38	0xbd0211ce	-0.03175526
39	0xbe579237	-0.2105187
40	0xbd29db0f	-0.041468676
41	0xbd6167eb	-0.055030745
42	0x3e6abd79	0.2292384
43	0xbd9dabbb	-0.076987706
44	0xbe50e9e6	-0.20401725
45	0x3e90ec4c	0.2830528
46	0xbd808ee1	-0.06277252
47	0xbce34191	-0.027741225
48	0xbe6ddbb5	-0.23228343
49	0x3dab540c	0.0836564
50	0x3e3712ae	0.1787822
51	0x3dd512ca	0.10403974
52	0x3e235512	0.1595042
53	0x3d9f9bd8	0.07793397
54	0xbe2fd000	-0.1716919
55	0xbd1a0f55	-0.037612278
56	0xbe17f643	-0.14840035
57	0xbdb3c416	-0.08777635
58	0x397eeb39	0.00024310955
59	0xbd698a4c	-0.057016656
60	0x3e4eede4	0.20207936
61	0xbd77d706	-0.060507797
62	0xbc8777b8	-0.016536579
63	0xbde94d9e	-0.113917574
64	0x3d03fbf4	0.032222703
65	0xbe79b7d1	-0.24386527
66	0xbdbcdd53	-0.09221902
67	0xbe534d67	-0.20634995
68	0xbd71caba	-0.059031226
69	0xbde90628	-0.11378127
70	0x3e51042f	0.20411752
71	0xbf1471d1	-0.5798617
72	0xbe4fab79	-0.20280255
73	0x3c85df4f	0.016341833
74	0xbec6c161	-0.3881941
75	0xbd4e5423	-0.050373208
76	0xbedf4ecf	-0.43614814
77	0x3e5afb33	0.21384887
78	0x3e6419d1	0.22275473
79	0x3c7da445	0.015481059
80	0x3ea55bcb	0.32296595
81	0x3e76388c	0.24045008
82	0x3e3129c1	0.17301084
83	0xbc7050db	-0.014667715
84	0x3e20e0da	0.15710774
85	0xbc87d20d	-0.016579652
86	0x3e09eb87	0.13468753
87	0xbd8180e8	-0.06323415
88	0x3bbe8951	0.0058147092
89	0x3e99dc84	0.30051053
90	0xbd1bd165	-0.03804149
91	0x3e337e1b	0.17528574
92	0x3e7b0e28	0.24517119
93	0x3e0f455e	0.13991305
94	0x3cfd2b2a	0.030904371
95	0x3d333f5d	0.0437616
96	0xbe7cc2a5	-0.24683626
97	0x3c386285	0.011253958
98	0x3c032037	0.008003286
99	0x3e2b6121	0.1673627
100	0xbd8d324b	-0.06894358
101	0x3c7caac8	0.015421577
102	0x3e092829	0.13394226
103	0xbe1435f3	-0.14473705
104	0xbe6d7b8d	-0.23191662
105	0xbde7fce1	-0.1132753
106	0xbee5dadb	-0.44893536
107	0x3d1f6c66	0.038921736
108	0xbe1cc1e6	-0.15308341
109	0x3eae0261	0.3398619
110	0x3d939ac5	0.07207254
111	0x3cbdbe03	0.023161894
112	0xbca05040	-0.019569516
113	0xbdc15be4	-0.09441355
114	0xbe650259	-0.22364177
115	0x3e834056	0.25635022
116	0xbcb7267f	-0.022357224
117	0x3eba73b7	0.36416408
118	0xbb7d413b	-0.0038643617
119	0x3e22e30f	0.15906928
120	0xbdbf4cdf	-0.09340834
121	0x3e5beabd	0.21476264
122	0xbd1c384b	-0.038139623
123	0xbf01b992	-0.5067378
124	0xbf01a171	-0.50636965
125	0x3d85d60a	0.06534965
126	0xbd3c4c30	-0.045971096
127	0xbd7eaa85	-0.06217434
128	0x3e2d17db	0.16903631
129	0xbe2486e0	-0.16067076
130	0xbc48321c	-0.012218978
131	0x3bf5a760	0.0074967593
132	0xbcdc8d47	-0.026922835
133	0xbb98400e	-0.004646308
134	0x3db74dbe	0.08950375
135	0xbdf23f76	-0.118285105
136	0xbcdd57f7	-0.027019484
137	0x3e18d7e0	0.149261
138	0xbe1408af	-0.14456438
139	0x3dcc4cb2	0.09975566
140	0xbe3b0233	-0.18262558
141	0xbcc4a5f9	-0.024004923
142	0x3e109dfe	0.14122769
143	0xbe605b1a	-0.21909752
144	0x3e942bfc	0.28939807
145	0x3d6169a1	0.055032376
146	0x3cef1bc2	0.02918804
147	0x3e847cb8	0.25876403
148	0x3e0188a2	0.12649778
149	0x3dfe2fea	0.12411483
150	0xbec54216	-0.38526982
151	0xbddd169e	-0.107953295
152	0x3da10cd4	0.07863775
153	0x3ea81de7	0.32835314
154	0xbe9a0377	-0.30080768
155	0x3e0e2abe	0.13883492
156	0xbd23d8c3	-0.040001642
157	0x3e2fdb66	0.17173538
158	0x3e9cefba	0.30651647
159	0xbd899646	-0.067181155
160	0x3df1b674	0.11802378
161	0xbdf02da8	-0.11727458
162	0x3cf8cb31	0.030370327
163	0x3da05dd3	0.078303955
164	0x3dda5356	0.10660426
165	0x3ea70d16	0.3262717
166	0xbde22db9	-0.11043877
167	0x3e1898a4	0.14901978
168	0x3d76027d	0.060060967
169	0x3c5f5092	0.013630049
170	0x3e10aa7b	0.14127533
171	0x3e40d024	0.188294
172	0x3e203f8d	0.15649243
173	0x3d5dce35	0.054151732
174	0x3e4b94ac	0.19880933
175	0xbb846efb	-0.00404155
176	0xbe8ba022	-0.2727061
177	0x3e0a690f	0.13516639
178	0x3e665eb6	0.22497067
179	0x3d942805	0.072341956
180	0xbef8ba86	-0.48579806
181	0xbf109004	-0.5646975
182	0x3d1c42a2	0.038149484
183	0x3e43ffc3	0.19140534
184	0x3e431771	0.19051911
185	0x3eae035d	0.3398694
186	0x3e22e514	0.15907699
187	0x3e38c7f2	0.18045023
188	0x3d192c30	0.037395656
189	0x3bba9df7	0.0056951004
190	0xbe678200	-0.22608185
191	0x3e06b493	0.13154821
192	0x3c59ce03	0.013293746
193	0x3d4b5a25	0.049646515
194	0x3dd143cc	0.10218009
195	0x3df9f2f9	0.122045465
196	0xbd7ac58b	-0.061223548
197	0x3d80270f	0.0625745
198	0xbdf6ad7f	-0.120448105
199	0xbdfc10f6	-0.123079225
200	0xbdb75edf	-0.08953642
201	0xbded5ca4	-0.115899354
202	0xbce57ccf	-0.028013615
203	0xbcd83f9d	-0.02639752
204	0xbcf372e5	-0.029717872
205	0xbe1124f0	-0.14174247
206	0x3c4c8294	0.012482304
207	0xbeaa54c7	-0.33267805
208	0xbd6083f5	-0.054813344
209	0x3df9cfd0	0.1219784
210	0xbe092d88	-0.13396275
211	0x3e0534c1	0.13008405
212	0xbe00b213	-0.1256793
213	0xbd770b5b	-0.060313564
214	0x3d88e41d	0.06684134
215	0xbe8360b9	-0.2565973
216	0x3e87872f	0.26470324
217	0x3e63144f	0.22175716
218	0x3e4cd1ca	0.20001903
219	0xbe14b510	-0.14522195
220	0xbdcfcdd5	-0.10146681
221	0xbcc6cd79	-0.024267899
222	0x3dec6287	0.1154223
223	0xbbc348c7	-0.0059596035
224	0x3e4ff9fe	0.20310208
225	0x3c66d8d9	0.014089786
226	0x3e413af4	0.18870145
227	0xbe5946a9	-0.21218361
228	0xbcb9328d	-0.022607112
229	0x3d1567e5	0.036476035
230	0x3e0ce37d	0.13758655
231	0xbe3ac5b9	-0.18239488
232	0xbd184c68	-0.03718224
233	0xbe3daf74	-0.18523961
234	0xbe6bfe3f	-0.23046206
235	0x3c44ea8e	0.012018813
236	0x3de552dd	0.111974455
237	0xbd785df0	-0.06063646
238	0x3ea67cad	0.32516995
239	0xbdf71719	-0.120649524
240	0xbe5c0895	-0.21487649
241	0xbe4fe94b	-0.20303838
242	0x3d3f4a76	0.04670187
243	0x3e8feeed	0.28111973
244	0x3e135115	0.14386399
245	0x3e81e1b3	0.25367507
246	0xbd94a499	-0.07257957
247	0xbe3c8eaf	-0.18413804
248	0xbdf59c85	-0.11992744
249	0xbe139f6b	-0.14416282
250	0xbe3f53ad	-0.18684264
251	0x3e1c481b	0.15261881
252	0xbd0761e8	-0.033052355
253	0xbdc4fde1	-0.09618736
254	0xbe80fcd4	-0.25192893
255	0x3d90799e	0.07054447

linear3.bias f4 [3]
0	0xbd64904d	-0.05580168
1	0xbb175bf4	-0.002309558
2	0xbb91f31e	-0.0044540307
