nn/max_reward/version_6_points/w32_s_t005_max_reward/critic.pth (torch, 315223 bytes, 6 tensors)

linear1.weight f4 [256, 45]
0	0xbd89a803	-0.06721499
1	0xbebbfcc1	-0.36716273
2	0x3d5f00ec	0.05444424
3	0x3cebbc9c	0.02877646
4	0x3d31e67a	0.04343269
5	0xbcb16823	-0.021656102
6	0x3e185d23	0.14879279
7	0xbe6cbc26	-0.23118648
8	0x3d276a5f	0.040872928
9	0xbcdbf95c	-0.026852302
10	0x3cf622f5	0.030045966
11	0xbd18112c	-0.03712575
12	0xbc9309f5	-0.017949084
13	0x3dae2cda	0.085046485
14	0x3d13745a	0.035999633
15	0xbdef8d0e	-0.11696826
16	0xbdb1bf65	-0.08679084
17	0xbde91625	-0.11381177
18	0xbd95138d	-0.0727912
19	0xbe7dba04	-0.2477799
20	0x3de965e3	0.113963865
21	0x3b3923ab	0.002825002
22	0xbe8a7147	-0.2703955
23	0x3ba868af	0.0051394324
24	0xbe0a079f	-0.1347947
25	0xbe9270ea	-0.28601772
26	0x3dbcf8a7	0.09227114
27	0xb9e1b192	-0.00043047644
28	0xbeadefcb	-0.3397201
29	0xbdbbb5d4	-0.0916554
30	0xbdd1fccb	-0.102532946
31	0xbeff47bc	-0.49859416
32	0x3b349aa0	0.0027557984
33	0xbe15c61a	-0.14626351
34	0xbee7e878	-0.45294547
35	0xbdab5f70	-0.08367813
36	0xbd9bb175	-0.076022066
37	0xbf05a4a2	-0.52204335
38	0x3e0f8421	0.14015247
39	0xbdcda470	-0.100411296
40	0xbececa9b	-0.4038895
41	0xbdb9ac65	-0.09066085
42	0xbc00c3e0	-0.0078592
43	0xbe8c2454	-0.27371466
44	0x3e42a78d	0.19009228
45	0x3cd443a5	0.025911162
46	0xbe44c3b0	-0.19215274
47	0xbe2aa08d	-0.16662808
48	0xbc470b13	-0.012148636
49	0xbbbb11f4	-0.0057089273
50	0x3c0461bb	0.008079941
51	0x3d280d14	0.041028097
52	0xbe26e0e1	-0.16296722
53	0x3d5f5b38	0.054530352
54	0x3e07f1d1	0.1327584
55	0xbe23ca6c	-0.15995187
56	0xbe139b99	-0.14414825
57	0xbd4b78e4	-0.049675837
58	0xbd5476f4	-0.051871255
59	0xbcb408f4	-0.021976925
60	0x3be791a6	0.007066923
61	0x3e864c14	0.26229918
62	0xbd3c31a5	-0.045945782
63	0xbe1dc245	-0.15406139
64	0x3dc24d99	0.09487457
65	0xbe4fc603	-0.20290379
66	0xbbf11b38	-0.007357981
67	0xbe7d256b	-0.24721305
68	0x3ddf7789	0.109114714
69	0x3d96f639	0.07371182
70	0x3e05d827	0.13070737
71	0xbde24cbf	-0.110497944
72	0xbd9580b7	-0.07299941
73	0x3e81ccb0	0.25351477
74	0x3ddb02b6	0.106938764
75	0xbc6fe34b	-0.014641593
76	0x3dd162e6	0.102239415
77	0x39ba6d87	0.0003555829
78	0x3d112509	0.03543571
79	0x3ed0291e	0.4065637
80	0xbc0e9675	-0.008702864
81	0x3df32358	0.11871976
82	0x3eea4e71	0.4576297
83	0xbe4b298b	-0.19840066
84	0x3ca62fd2	0.020286474
85	0xbe11394c	-0.14182013
86	0x3c09474a	0.008378813
87	0xbc42cbd8	-0.01188942
88	0xbdde50ad	-0.108552314
89	0x3cae30ff	0.021263598
90	0x3e018168	0.12647021
91	0xbe04a11f	-0.12952088
92	0x3da45650	0.08024275
93	0x3b1a03eb	0.002350087
94	0xbae24c9a	-0.0017265261
95	0x38d9da3e	0.00010388017
96	0x3d4d42d2	0.050112553
97	0xbe482b6e	-0.19547817
98	0x3e068e2b	0.1314017
99	0xbd9ff746	-0.078108355
100	0x3d122c50	0.03568679
101	0xbd95c493	-0.07312884
102	0x3b3cec2d	0.0028827295
103	0x3e683bc0	0.22679043
104	0x3c5fbc8d	0.013655794
105	0x3cd28bb6	0.025701385
106	0x3ebb79b4	0.3661629
107	0x3df0ef68	0.11764413
108	0xbe017ce6	-0.12645301
109	0x3ee5fcb1	0.4491935
110	0xbc920c8b	-0.017828247
111	0x3e15b6be	0.14620492
112	0xbe9d0477	-0.3066747
113	0x3dcc922f	0.0998882
114	0x3d5adf06	0.053435348
115	0xbd8987ad	-0.06715331
116	0xbe1a1de4	-0.15050465
117	0x3cab9457	0.020944757
118	0x3de19e18	0.11016482
119	0xbdf36673	-0.11884775
120	0x3c8ffc5b	0.017576387
121	0x3db3199f	0.08745121
122	0xbe2456e7	-0.16048776
123	0xbe0d60bf	-0.13806437
124	0x3df9fdcb	0.1220661
125	0x3d4d402e	0.050110035
126	0xbd69b265	-0.057054896
127	0x3ecb2a82	0.39680868
128	0xbdb7c484	-0.08973029
129	0x3d4a93d9	0.049457405
130	0xbe977e00	-0.29588318
131	0x3cb9b134	0.022667505
132	0x3cc83f17	0.024444146
133	0x3cfbb9b4	0.030728199
134	0x3bb042e2	0.005379067
135	0xbdaf6b00	-0.085653305
136	0xbd877de9	-0.06615812
137	0x3dad35c4	0.084575206
138	0x3b0b9321	0.0021297412
139	0x3b74a100	0.0037327409
140	0x3a06c49d	0.0005140992
141	0x3db7c275	0.089726366
142	0x3e78cdee	0.24297306
143	0xbd19427f	-0.03741693
144	0xbdb8fb58	-0.09032315
145	0xbd4e8dba	-0.05042813
146	0x3dffaa08	0.12483603
147	0x3dca532f	0.09879147
148	0xbe3d04f6	-0.18458924
149	0xbde5ee03	-0.11227038
150	0x3deddd1a	0.116144374
151	0xbf0fc0ff	-0.56153864
152	0xbdf12ed7	-0.11776512
153	0xbdff62aa	-0.124699906
154	0xbf91c66e	-1.1388681
155	0x3d6e6b26	0.058207653
156	0xbdaeef91	-0.085417874
157	0x3e76587b	0.2405719
158	0x3e1a3a63	0.15061335
159	0x3e019262	0.12653497
160	0x3e8b64ea	0.2722543
161	0x3cedf72c	0.029048525
162	0x3d978c52	0.07399811
163	0xbc43443b	-0.011918123
164	0x3c7bd821	0.015371353
165	0xbd911997	-0.07084959
166	0xbe8ee053	-0.2790552
167	0x3cac7a48	0.021054402
168	0x3cdc9034	0.02692423
169	0xbe402196	-0.18762812
170	0xbc82bdb1	-0.015959593
171	0x3bb37df4	0.0054776613
172	0xbec82196	-0.39088124
173	0xbd5481fd	-0.05188178
174	0x3db19471	0.08670891
175	0x3f32341f	0.6961078
176	0xbd086cae	-0.03330677
177	0xbaadb309	-0.0013252209
178	0x3cac2dee	0.021017995
179	0x3c818266	0.01580925
180	0xbe829a37	-0.25508282
181	0x3dc6e2b3	0.09711208
182	0x3d4cb3fd	0.049976338
183	0xb90fff9f	-0.00013732769
184	0x3b5da6d6	0.0033821366
185	0x398c38fc	0.00026745338
186	0xbe05cc5e	-0.13066241
187	0x3ddc34ea	0.1075228
188	0x3d8103f9	0.06299586
189	0x3d6aea9f	0.05735266
190	0xbce45428	-0.02787216
191	0xbc3ce8d2	-0.011530118
192	0xbdac7d84	-0.08422378
193	0xbe09227e	-0.13392064
194	0x3d955314	0.072912365
195	0xbe3fcd11	-0.1873057
196	0xbe857761	-0.2606764
197	0xbccc3545	-0.024927745
198	0xbd34375b	-0.043998104
199	0xbe468286	-0.19385728
200	0xbe097b99	-0.13426055
201	0xbe7a6996	-0.2445434
202	0x3da2ac54	0.07943025
203	0xbcf99879	-0.030468212
204	0x3dd1a2cb	0.102361284
205	0xbe591c15	-0.21202119
206	0xbc8b5a2f	-0.017010776
207	0x3e097d4e	0.13426706
208	0x3b5aaa44	0.0033365646
209	0x3ca53b69	0.02016993
210	0x3e05e468	0.13075411
211	0x3e8d4f68	0.27599645
212	0x3d852f48	0.06503159
213	0x3e0b9425	0.13630731
214	0x3f10391f	0.5633716
215	0x3d9ad2c2	0.0755973
216	0x3e366414	0.17811614
217	0x3ef93426	0.486726
218	0xbe2b372d	-0.16720267
219	0xbcdbee71	-0.026847096
220	0xbf22829c	-0.63480544
221	0x3dbd5054	0.09243837
222	0xbd834a27	-0.06410628
223	0x3c80b430	0.01571092
224	0xbcb2f9f8	-0.02184771
225	0x3e653985	0.22385223
226	0x3d1c88f6	0.038216554
227	0xbd3b3ede	-0.04571425
228	0x3c9cc6ec	0.019137822
229	0xbb22d155	-0.002484401
230	0xbb57a2d2	-0.0032903445
231	0x3d9b947f	0.07596683
232	0x3e963762	0.2933913
233	0xbdd16745	-0.10224775
234	0xbe360c39	-0.177781
235	0x3ead3976	0.33832902
236	0xbd8648c8	-0.06556851
237	0xbce121e9	-0.02748199
238	0x3e9ef0b1	0.31043008
239	0xbcac0605	-0.020998964
240	0xbe78e82b	-0.24307315
241	0x3e952842	0.29132277
242	0x3e2da767	0.1695839
243	0x3d2388b4	0.039925292
244	0x3ea6fb25	0.32613483
245	0x3e2dc583	0.16969876
246	0x3e450a31	0.19242169
247	0x3e5f495c	0.21805328
248	0x3db8a1f2	0.090152636
249	0xbdf4fee0	-0.11962676
250	0xbed33230	-0.41249228
251	0xbd9d602a	-0.076843575
252	0x3de7e4e4	0.11322954
253	0xbdd2dd85	-0.10296158
254	0x3cca868b	0.024722358
255	0x3c69cb8e	0.014269723

linear1.bias f4 [256]
0	0xbe062fbd	-0.13104148
1	0x3d640c51	0.05567581
2	0xbe3a444b	-0.18190114
3	0xbd9caa33	-0.076496504
4	0x3d80e731	0.06294096
5	0xbd901734	-0.07035676
6	0xbe6b327d	-0.22968479
7	0x3dd4c933	0.10389938
8	0xbbfebec1	-0.0077742045
9	0xbdb69d69	-0.08916742
10	0x3e76070c	0.24026126
11	0x3d4a69ea	0.049417414
12	0x3e248809	0.16067518
13	0x3c4b301b	0.012401606
14	0xbe0a9c84	-0.13536268
15	0x3d8c0da7	0.068385415
16	0xbe251776	-0.16122231
17	0xbd359bba	-0.044337966
18	0xbdc3a0f2	-0.09552182
19	0x3dc4be2e	0.096065864
20	0x3e16a796	0.14712366
21	0xbe331775	-0.17489417
22	0x3da16178	0.07879919
23	0x3e076d21	0.13225223
24	0xbddaa99e	-0.10676883
25	0x3ce42f63	0.027854627
26	0xbe1f1a1f	-0.15537308
27	0x3e468f22	0.19390538
28	0x3bc5596e	0.0060226237
29	0x3e419c99	0.18907394
30	0x3e0709dc	0.13187355
31	0x3d6aad42	0.057294138
32	0x3e477e7a	0.1948184
33	0xba77ff3e	-0.00094603363
34	0xbdf98bb8	-0.12184852
35	0xbe1b96fe	-0.15194318
36	0xbd984f2f	-0.07436978
37	0x3e2ff7f0	0.17184424
38	0xbe3c1f5e	-0.1837134
39	0x3dcea2c3	0.10089638
40	0x3c284680	0.010270715
41	0x3dbd3d1f	0.092401735
42	0xbdf814c5	-0.121133365
43	0xbdbb29ce	-0.09138833
44	0x3e1b36d7	0.15157638
45	0xbde7d927	-0.113207154
46	0x3e03cc82	0.12870982
47	0xbd65a0c8	-0.056061536
48	0xbc0da254	-0.008644659
49	0x3d953ef5	0.07287399
50	0x3d6befbb	0.05760167
51	0xbd859f13	-0.065244816
52	0x3ca54f3a	0.02017938
53	0xbd44e5bd	-0.048070658
54	0xbda51c6d	-0.080620624
55	0x3ccf7c72	0.025327895
56	0xbd9a267c	-0.075268716
57	0x3dd22524	0.1026099
58	0x3e21795f	0.15768956
59	0xbdd017bf	-0.10160779
60	0xbdd8acaf	-0.10579812
61	0x3e207794	0.15670615
62	0x3beaa803	0.007161142
63	0xbe060bf6	-0.130905
64	0x3c16e73f	0.009210407
65	0xbdbcdec7	-0.09222179
66	0xbde03783	-0.10948088
67	0x3da04c01	0.078269966
68	0xbd87aa2a	-0.06624253
69	0xbe140b01	-0.14457323
70	0x3d269dc4	0.0406778
71	0x3e4fa8cf	0.20279239
72	0xbe11801e	-0.14209029
73	0x3d658f0d	0.056044627
74	0xbd14ab3f	-0.036296126
75	0x3dd23438	0.10263866
76	0xbddda546	-0.10822539
77	0xbd7c6e14	-0.061628416
78	0xbdafb26c	-0.08578953
79	0x3cd34849	0.025791304
80	0x3e1f833d	0.15577407
81	0x3dab28d4	0.08357397
82	0x3e8d4ff3	0.2760006
83	0xbdd310e9	-0.1030596
84	0x3d64df7e	0.0558772
85	0x3c3285ee	0.010896189
86	0xbdf4bc34	-0.119499594
87	0xbe0726b8	-0.13198364
88	0xbc9d7ebd	-0.019225473
89	0x3dfbec4c	0.123009294
90	0xbde35a6d	-0.11101232
91	0xbdb2ebca	-0.087363794
92	0xbc6891b6	-0.014194896
93	0xbe138088	-0.144045
94	0xbe0447dc	-0.12918037
95	0xbe742a2b	-0.23844211
96	0x3dfdc9b3	0.12391987
97	0xbe087db6	-0.13329205
98	0x3e3ae1dd	0.18250223
99	0x3e430a6f	0.19046949
100	0x3e25a90e	0.1617777
101	0x3e007291	0.12543704
102	0xbdfe88bc	-0.12428424
103	0x3d37dd4d	0.044888783
104	0x3d710ff1	0.058853094
105	0xbde25c7b	-0.110527955
106	0xbd82814e	-0.06372319
107	0xbce3e055	-0.02781693
108	0xbc5ce9ef	-0.0134835085
109	0x3d36a455	0.044590313
110	0xbdef1b14	-0.116750866
111	0xbd399bf6	-0.04531475
112	0x3be02dbf	0.006841391
113	0x3d9174d8	0.07102364
114	0xbe26936a	-0.16267172
115	0x3de76926	0.11299352
116	0x3dbbea38	0.09175533
117	0x3c54331c	0.012951639
118	0x3dd78b39	0.105246015
119	0xbc42e990	-0.011896506
120	0x3e225f54	0.15856677
121	0x3d20b2b9	0.039232943
122	0xbe1969da	-0.14981785
123	0x3e4652e7	0.19367562
124	0xbcefe92c	-0.02928599
125	0x3c3a0374	0.011353362
126	0x3e25814e	0.16162607
127	0xbd944d4b	-0.07241305
128	0x3e37585f	0.17904805
129	0x3e7cfd48	0.24705994
130	0x3d89253d	0.06696556
131	0x3d9f1b63	0.077688955
132	0x3e04843e	0.12941071
133	0xbe146eea	-0.14495435
134	0xbda4a57a	-0.08039375
135	0xbce915fe	-0.02845287
136	0xbdacf335	-0.084448256
137	0xbd389121	-0.04506028
138	0xbdcb88ee	-0.09938227
139	0xbe22f955	-0.15915425
140	0xbdfa89ec	-0.12233338
141	0x3e28b4a9	0.16475166
142	0x3e2f497d	0.17117877
143	0xbdeb0bdb	-0.114768706
144	0xbd7264e9	-0.059178267
145	0xbe2ba019	-0.16760291
146	0xbd54a792	-0.05191762
147	0xbd514a93	-0.05109651
148	0xbd335595	-0.04378279
149	0x3ddbb239	0.10727353
150	0xbd1b43ab	-0.03790633
151	0xbd818e12	-0.06325926
152	0x3cf27a7a	0.029599417
153	0xbe4e3258	-0.20136392
154	0xbdf59197	-0.1199066
155	0x3d7af4f6	0.06126877
156	0xbdd02cc9	-0.10164792
157	0x3d5d764f	0.054067906
158	0xbd9f1395	-0.07767407
159	0xbdd4917d	-0.10379312
160	0xbd1256bb	-0.035727244
161	0x3e32ae5e	0.17449328
162	0x3d84e8af	0.064896934
163	0x3e119eab	0.14220683
164	0xbd809c7f	-0.06279849
165	0xbd748845	-0.05970027
166	0x3dac7711	0.084211476
167	0xbd9377f8	-0.072006166
168	0x3e148963	0.14505534
169	0x3d1a5b41	0.037684683
170	0x3c7657ed	0.015035612
171	0x3d64877f	0.05579328
172	0x3c6af80c	0.014341366
173	0xbd96b77f	-0.07359218
174	0xbdc4e79e	-0.0961449
175	0xbd81ad7a	-0.06331916
176	0xbd82f082	-0.063935295
177	0xbe27407c	-0.16333193
178	0xbe253334	-0.16132814
179	0xbe1456c9	-0.14486231
180	0x3daacaa9	0.083394356
181	0xbe35b49e	-0.17744681
182	0x3be90ea8	0.007112343
183	0x3da5aba5	0.08089379
184	0x3c532afe	0.012888668
185	0x3d854676	0.0650758
186	0x3e111a4e	0.1417019
187	0x3cb6f638	0.022334203
188	0xbce7dd20	-0.028303683
189	0xbe4d0a35	-0.20023425
190	0xbdca17c2	-0.09867813
191	0x3e1f54df	0.1555972
192	0x3c60c3cc	0.013718557
193	0xbdae5456	-0.085121796
194	0x3e0ad3e2	0.1355739
195	0xbe13c8cd	-0.14432068
196	0x3e23ab43	0.159833
197	0xbdf37679	-0.11887831
198	0xbdf0782f	-0.11741673
199	0x3d3e0644	0.046392694
200	0x3d95f150	0.07321417
201	0x3cc548a5	0.024082491
202	0x3e1663d2	0.14686516
203	0x3dd10ab9	0.10207123
204	0x3cc804af	0.024416296
205	0xbdd71a8a	-0.10503109
206	0xbdd3f5fb	-0.103496514
207	0x3db0c75a	0.08631773
208	0xbd30ea5f	-0.043192264
209	0xbd03ea06	-0.032205604
210	0x3c3c8867	0.01150713
211	0x3e20bcea	0.15697065
212	0x3d9232eb	0.07138618
213	0xbbe4d16a	-0.006982972
214	0xbd8a0d2d	-0.06740794
215	0x3e164c1c	0.14677471
216	0x3cb874f6	0.022516709
217	0xbdbc33fe	-0.09189604
218	0x3c0f4349	0.008744069
219	0x3da23c9d	0.07921717
220	0x3db2a78d	0.08723364
221	0xbe16d6c6	-0.14730367
222	0x3cae9430	0.021310896
223	0x3dfacc6f	0.12246024
224	0x3cd97304	0.026544102
225	0xbdbc7e60	-0.092037916
226	0x3c4992eb	0.012303094
227	0x3dafdf57	0.085875206
228	0x3d19e6dc	0.03757368
229	0x3cd201d1	0.025635632
230	0xbe220589	-0.15822424
231	0x3de2ebc2	0.110801235
232	0xbda66c3d	-0.081261136
233	0x3d9ab123	0.075533174
234	0x3d49914f	0.049210843
235	0xbe14c010	-0.14526391
236	0xbda40a91	-0.08009828
237	0xbcf941a5	-0.03042681
238	0x3e78d6d0	0.24300694
239	0xbdd1d7ef	-0.10246264
240	0x3cc09877	0.0235102
241	0xbc2dec49	-0.010615417
242	0xbcb434fd	-0.021997923
243	0x3de588d4	0.112077385
244	0x3bb7effa	0.005613324
245	0xbe231481	-0.1592579
246	0xbdbc8d1d	-0.09206603
247	0xbc0510c8	-0.008121677
248	0xbe38535b	-0.18000548
249	0x3ca0015b	0.019531896
250	0xbdaa4159	-0.08313245
251	0x3c63c803	0.013902667
252	0xbe1d070b	-0.15334718
253	0xbe5418f5	-0.20712645
254	0xbe00efcc	-0.12591475
255	0xbcecb3f6	-0.028894406

linear2.weight f4 [256, 256]
0	0xbdc35815	-0.09538285
1	0xbcfabd0e	-0.030607726
2	0xbe1e3f0d	-0.1545374
3	0xbe0bae0e	-0.13640615
4	0xbe061054	-0.13092166
5	0x3baa8f03	0.0052050366
6	0xbf0bbf8f	-0.5458917
7	0x3c82dbd9	0.015973972
8	0xbecfa696	-0.40556782
9	0x3e0b3327	0.13593732
10	0x3e0bc75d	0.1365027
11	0x3caf7a82	0.021420721
12	0xbd05734b	-0.032580655
13	0x3e825b8a	0.25460464
14	0xbd95d69d	-0.07316325
15	0x3e904fc9	0.2818587
16	0xbd240460	-0.040043235
17	0x3dbf423e	0.093388066
18	0x3cf1da41	0.029523017
19	0x3e1ff735	0.15621646
20	0x3db7b94d	0.0897089
21	0xbd82150b	-0.0635167
22	0x3ef455f5	0.4772183
23	0xbd8de299	-0.06927986
24	0x3e488247	0.19580947
25	0xbcfa5f1c	-0.03056293
26	0x3dd6ecfa	0.104944184
27	0xbe829cde	-0.25510305
28	0x3c065bdb	0.008200611
29	0x3d992285	0.07477287
30	0x3d818c61	0.06325603
31	0xbd5973b4	-0.05308886
32	0xbf103d3f	-0.56343454
33	0x3e04acb2	0.12956503
34	0x3e8e8d0e	0.2784199
35	0x3e656021	0.22399952
36	0xbe12cd43	-0.14336114
37	0xbc2664ec	-0.010155898
38	0xbe4084ac	-0.1880061
39	0x3d49d0d3	0.049271416
40	0xbd439686	-0.047750972
41	0xbe0005e0	-0.12502241
42	0x3e2e9304	0.1704827
43	0x3d59060a	0.052984275
44	0xbdbac78a	-0.0912009
45	0x3d904d79	0.07046027
46	0x3ce608be	0.02808034
47	0xbeaae85f	-0.3338041
48	0xbca2cf4e	-0.019874241
49	0x3e03695c	0.1283316
50	0x3cfc2299	0.030778216
51	0xbd8a3fa5	-0.067504205
52	0xbda1f003	-0.07907107
53	0x3d7e4c31	0.06208438
54	0x3f1a5cbb	0.60297745
55	0xbd0e0ebe	-0.034682028
56	0xbf007074	-0.5017159
57	0xbd63eb65	-0.05564441
58	0x3d04cdd2	0.032422848
59	0xbcc39374	-0.023874022
60	0x3e1791a1	0.14801647
61	0x3cf90cde	0.030401643
62	0xbc8b34d3	-0.016992962
63	0x3cf856f5	0.030314902
64	0x3d5c9359	0.05385146
65	0x3e44dc3e	0.1922464
66	0xbee962f5	-0.4558331
67	0x3e7c8ec3	0.24663834
68	0xbe240c3b	-0.1602029
69	0xbd3b5d68	-0.045743376
70	0x3d797401	0.060901646
71	0x3d1982d6	0.03747829
72	0xbc643e1f	-0.013930826
73	0x3e4b1a1a	0.19834176
74	0xbeb21950	-0.34784937
75	0xbca3d65c	-0.019999675
76	0x3ed531e9	0.4163964
77	0x3dc14e1b	0.094387256
78	0xbc683cc1	-0.014174641
79	0xbe573ec4	-0.21020037
80	0x3ee02534	0.43778384
81	0xbcb42efd	-0.021995062
82	0x3dacd7c1	0.08439589
83	0x3cfa52b4	0.030557014
84	0xbce84df5	-0.028357485
85	0xbe29611b	-0.16540949
86	0xbd597ff3	-0.053100538
87	0xbe81320e	-0.252335
88	0x3e2d1648	0.16903031
89	0x3e1939f9	0.14963521
90	0x3e9e3ad9	0.30904272
91	0xbcc6e986	-0.024281275
92	0xbaa63eb8	-0.0012683487
93	0xbd8b86b3	-0.06812801
94	0x3ca1edc3	0.019766694
95	0x3ed327d7	0.41241333
96	0x3c9aab73	0.018880581
97	0x3c7d6931	0.015466974
98	0x39ca6c2c	0.00038609037
99	0x3c845f9a	0.016158868
100	0xbe2859d3	-0.16440515
101	0xbc4ce079	-0.01250469
102	0xbd170ab0	-0.036875427
103	0xbdcbbcc6	-0.09948115
104	0xbe3851bf	-0.17999934
105	0x3cbb794c	0.022884987
106	0xbe2f16df	-0.17098568
107	0x3e06227a	0.1309909
108	0x3bc4ab0e	0.0060018366
109	0xbcd7f189	-0.02636029
110	0xbbb151d4	-0.005411366
111	0xbdbbb34a	-0.09165056
112	0x3e356496	0.17714152
113	0x3b8197f9	0.003954884
114	0xbe0cf37b	-0.13764755
115	0xbcd645c8	-0.026156321
116	0x3e190215	0.149422
117	0x3e499ca1	0.19688655
118	0xbda274db	-0.07932445
119	0xbebc365b	-0.3676022
120	0x3e6914f8	0.22761905
121	0xbd6dc362	-0.05804766
122	0xbdbcb8ba	-0.09214921
123	0x3d508fd1	0.050918404
124	0x3d3a606b	0.045502108
125	0xbdd97d8c	-0.10619649
126	0x3d9b7d8d	0.07592306
127	0xbd7d0cfe	-0.06177997
128	0xbd98c609	-0.07459647
129	0xbefe879d	-0.4971284
130	0xbe631be1	-0.22178604
131	0x3d4165c2	0.047216184
132	0xbe9eeec2	-0.31041533
133	0x3dae1b7a	0.085013345
134	0x3d241f9a	0.0400692
135	0xbeb2d47a	-0.34927732
136	0x3d45b6c0	0.048269987
137	0x3e475907	0.19467555
138	0x3cc22897	0.023700995
139	0xbe3bc87a	-0.18338194
140	0xbe721875	-0.23642142
141	0x3e50db5c	0.20396179
142	0xbe8cedaf	-0.27525088
143	0x3d4f46f8	0.05060479
144	0x3e10fd11	0.14159037
145	0x3de893e4	0.11356333
146	0xba2b4e9a	-0.0006534845
147	0xba55fb9a	-0.0008162797
148	0x3e0f2200	0.13977814
149	0xbe7288ef	-0.23685049
150	0x3de047d2	0.10951199
151	0x3e9df0e7	0.30847856
152	0xbf033772	-0.5125648
153	0x3e41ed61	0.18938209
154	0xbe28f9c1	-0.16501524
155	0x3eb22ee9	0.34801415
156	0x3d16294b	0.036660474
157	0x3c4aa93b	0.012369449
158	0x3e212f5c	0.15740722
159	0x3df91ec5	0.12164072
160	0xbcc25d5c	-0.023726158
161	0x3b557cad	0.0032575533
162	0x3c9cccda	0.01914065
163	0xbd699135	-0.057023246
164	0xbed0a4ed	-0.40750828
165	0xbddb18f8	-0.10698122
166	0xbec7aa67	-0.38997194
167	0x3e9f5f46	0.31127375
168	0x3da63ca5	0.08117036
169	0x3e76837c	0.24073595
170	0xbdd0e131	-0.10199202
171	0xbe086d42	-0.13322929
172	0xbe05121d	-0.12995191
173	0xbe21917c	-0.15778154
174	0x3eb4e290	0.35329103
175	0xbe293563	-0.16524272
176	0x3d03b1f7	0.032152142
177	0xbbda8ffc	-0.0066699963
178	0x3de393e5	0.11112193
179	0x3e38a340	0.18031025
180	0x3dd15def	0.102229945
181	0x3b9f7c78	0.0048671328
182	0xbce5f080	-0.02806878
183	0xbd364cf4	-0.044506982
184	0x3e2f15f0	0.17098212
185	0xbd07edf5	-0.033185918
186	0x3cf4f48e	0.029901769
187	0xbd04ba10	-0.032404006
188	0x3df92611	0.12165464
189	0xbe6ae0ac	-0.22937268
190	0xbdc3e7d1	-0.095657
191	0xbbe430b2	-0.0069638127
192	0xbe185c48	-0.14878953
193	0xbe21b4da	-0.15791646
194	0x3e524164	0.20532757
195	0x3ce58ff4	0.028022744
196	0xbe1409f8	-0.14456928
197	0x3ea7f094	0.32800734
198	0x3a9ce1f3	0.0011969194
199	0xbe679b8a	-0.22617927
200	0xbe7abe93	-0.24486761
201	0x3d92a4c9	0.071603365
202	0xbd158f27	-0.036513474
203	0x3cb5cab6	0.022191387
204	0x3ccc8637	0.024966342
205	0x3cafb76f	0.021449773
206	0xbdeddc37	-0.11614268
207	0x3ee47112	0.44617516
208	0xbafb6cfa	-0.0019182258
209	0xbd398a52	-0.04529793
210	0x3e04a224	0.12952477
211	0x3d8555f7	0.06510537
212	0x3e079bb3	0.13242988
213	0x3e30c907	0.17264186
214	0xbdf3ec24	-0.119102746
215	0xbd1a0253	-0.037599873
216	0xbccf5578	-0.02530931
217	0xbd94e7c7	-0.072707705
218	0x3dd378cf	0.10325777
219	0x3e067a6b	0.13132636
220	0x3e201c3c	0.1563577
221	0xbb7ec97e	-0.0038877423
222	0xbf04c034	-0.5185578
223	0xbe1a180d	-0.15048237
224	0xbe0f1674	-0.13973409
225	0xbd85542d	-0.06510196
226	0xbf21da99	-0.6322418
227	0xbc5a12da	-0.013310159
228	0xbe283bb8	-0.16429031
229	0xbc89d41a	-0.01682477
230	0x3e2bfd52	0.16795853
231	0x3d42ad01	0.04752827
232	0xbdfcfd42	-0.123529926
233	0xbd45815e	-0.048219077
234	0xbd731747	-0.05934837
235	0x3d7c5b20	0.06161034
236	0x3d51ddd3	0.05123694
237	0x3d30db68	0.043177992
238	0x3e05655e	0.1302695
239	0x3e693a16	0.22776064
240	0xbe48aeb3	-0.19597892
241	0x3dd57056	0.10421817
242	0xbf35f261	-0.71072966
243	0x3e29bb37	0.16575323
244	0x3e9d8e12	0.30772454
245	0xbc1513ed	-0.009098989
246	0x3d97e42c	0.07416567
247	0xbd6fc19b	-0.058534246
248	0x3e3315ce	0.17488787
249	0xbd38c575	-0.045110185
250	0xbdb31ef4	-0.08746138
251	0x3e625375	0.22102149
252	0xbe62d517	-0.221516
253	0xbe7f8171	-0.24951722
254	0xbd86d2f2	-0.065832034
255	0xbe8ae769	-0.27129677

linear2.bias f4 [256]
0	0xbd932d77	-0.07186406
1	0x3d046199	0.03231964
2	0x3d7120e5	0.05886926
3	0x3d775064	0.0603794
4	0xbc660a8a	-0.014040599
5	0x3d06312e	0.032761745
6	0x3b076c3e	0.0020663883
7	0xbd8f8ac1	-0.07008887
8	0xbce39c27	-0.02778442
9	0xbd57e1ba	-0.052705504
10	0xbd0a5745	-0.033774633
11	0x3c999c12	0.018751178
12	0x3db0f300	0.086400986
13	0x3d3fef3c	0.04685901
14	0x3d9a9e8a	0.0754977
15	0x3d50ba61	0.050958995
16	0x3cb077e2	0.02154154
17	0x3d39544e	0.045246415
18	0x3c947f4b	0.018127104
19	0xbd995e4f	-0.07488691
20	0xbcfbc83c	-0.030735128
21	0x3d51d44d	0.051227856
22	0x3d626260	0.0552696
23	0x3c9a1ae0	0.018811643
24	0xbc94f9a0	-0.018185437
25	0xbc1798d9	-0.00925275
26	0x3dbfa356	0.09357326
27	0xbd130afa	-0.03589914
28	0xbd37be59	-0.044859264
29	0xbd8afa7f	-0.067860596
30	0x3cefd0fb	0.029274454
31	0xbcf9b7ff	-0.030483244
32	0xbd342cf3	-0.04398818
33	0x3d0c45ae	0.03424614
34	0x3db89b9c	0.09014055
35	0x3cce96cc	0.02521839
36	0xbba30138	-0.0049745105
37	0x3ca091af	0.019600717
38	0xbe1c3c68	-0.15257418
39	0x3d604c60	0.054760337
40	0xbbeaecbe	-0.007169335
41	0xbd6b0a30	-0.057382762
42	0x3b58f342	0.0033103977
43	0xbd37ebff	-0.044902798
44	0x3c0fc523	0.008775028
45	0xbd5e9c46	-0.054348253
46	0x3d56589b	0.052330595
47	0x3d147590	0.03624493
48	0x3d0cde4b	0.034391683
49	0x3d807770	0.06272781
50	0xbd347aee	-0.044062547
51	0xbcbf11cc	-0.023323916
52	0x3dc171f0	0.0944556
53	0xbd00d867	-0.031456377
54	0xbd40dbb6	-0.047084533
55	0xbd0348e5	-0.03205194
56	0x3cd0c046	0.025482308
57	0xbdaf656b	-0.08564266
58	0xbbec9013	-0.0072193234
59	0x3ba276b9	0.0049580005
60	0xbcf25c59	-0.02958505
61	0x3d61a903	0.055092823
62	0xbd14541b	-0.03621302
63	0xbd35a333	-0.044345092
64	0x3d87e5d5	0.06635634
65	0x3d3e7a60	0.046503425
66	0x3cd8979e	0.026439484
67	0x3c70e722	0.014703544
68	0x3cab9a3c	0.020947568
69	0xbd8379f6	-0.064197466
70	0x3c17ee10	0.009273067
71	0xbdd081c7	-0.10181003
72	0x3d455be2	0.04818333
73	0x3cfc065a	0.030764747
74	0xbbdd65ea	-0.006756534
75	0xba7647ad	-0.0009394836
76	0x3c099bdf	0.008398979
77	0x3cfdbb0e	0.030972984
78	0x3d04cb10	0.032420218
79	0x3c96a51d	0.018389279
80	0xbdb93cb0	-0.09044778
81	0x3c84cd84	0.016211279
82	0x3d57678d	0.052588988
83	0x3ba0aed1	0.0049036522
84	0xbcbfb497	-0.023401542
85	0xbc85487d	-0.016269917
86	0x3d398693	0.045294356
87	0xbda80055	-0.08203188
88	0x3c857230	0.0162898
89	0xbd588c98	-0.052868456
90	0xbbc535fa	-0.0060183974
91	0x3c780824	0.01513866
92	0xbd9fdbc4	-0.07805589
93	0x3d75537e	0.059894077
94	0x3d80799f	0.062731974
95	0xbd122796	-0.035682283
96	0x3cdd05e8	0.026980355
97	0x3c86ab88	0.016439214
98	0x3b7f02d5	0.00389116
99	0xbbc6bc93	-0.0060649603
100	0xbd5148d2	-0.051094837
101	0xbc89713c	-0.016777627
102	0x3c610dcf	0.013736202
103	0x3da7a008	0.081848204
104	0x3dac2906	0.08406262
105	0xbc8f97c5	-0.017528424
106	0x3c5bbf4a	0.013412306
107	0xbd37e5f9	-0.044897053
108	0xbd5cd8f9	-0.05391786
109	0x3d37cc38	0.044872493
110	0xbcb99994	-0.02265624
111	0xbd873c27	-0.0660327
112	0x3be32621	0.0069320356
113	0x3caa0741	0.020755412
114	0x3cd75a59	0.026288198
115	0xbdcff0e6	-0.101533696
116	0xbd84f818	-0.06492633
117	0x3d4c63e3	0.049899947
118	0x3d928efb	0.071561776
119	0xbd697fb7	-0.057006564
120	0xbde4f3ac	-0.11179289
121	0x3daac65d	0.08338616
122	0x3d8ec26a	0.06970675
123	0x3ce5b06f	0.028038232
124	0x3bf35c74	0.0074267928
125	0x3caad9b1	0.020855756
126	0xbd7f4ac0	-0.062327147
127	0x3c0e85b6	0.008698871
128	0xbcf8545e	-0.030313667
129	0x3dafe2aa	0.085881546
130	0xbd1de3be	-0.03854727
131	0x3d126d75	0.035748918
132	0xbd138b8f	-0.036021765
133	0x3d30bc22	0.043148167
134	0x3a2b4e54	0.0006534804
135	0x3cfe3ec1	0.031035783
136	0x3ccda33c	0.02510225
137	0x3b408f9f	0.002938248
138	0xbd9b8d77	-0.07595342
139	0xbd591a98	-0.053003877
140	0xbcd39a05	-0.025830278
141	0xbce79691	-0.028270038
142	0x3d829716	0.063764736
143	0xbd3a978d	-0.045554686
144	0x3d0a477f	0.03375959
145	0x3b5007b2	0.0031742868
146	0x3d02d69c	0.03194295
147	0x3d8e5d11	0.06951345
148	0xbc97272d	-0.018451298
149	0x3cc5bffd	0.024139399
150	0xbc3e568a	-0.011617312
151	0x3d5a1b13	0.053248476
152	0xbd8c1b57	-0.06841152
153	0xbcdb91e6	-0.026802968
154	0xbc0cbc90	-0.008589879
155	0x3d8c147c	0.068398446
156	0xbca4b20b	-0.020104429
157	0xbc58464e	-0.013200356
158	0xbdbb6443	-0.09149983
159	0xbcbf313a	-0.023338903
160	0x3d9de035	0.0770878
161	0x3c32503b	0.010883386
162	0x3c1aa23d	0.009438095
163	0xbc95c06a	-0.018280227
164	0xbd74f3dc	-0.059802875
165	0xbc2aaa4f	-0.010416581
166	0xbce16b25	-0.02751691
167	0xbd723e26	-0.0591413
168	0x3d14aa6c	0.03629534
169	0xbce6d46d	-0.028177464
170	0xbd12d553	-0.035847973
171	0xbb64f715	-0.0034937311
172	0x3d38543b	0.045002203
173	0x3cf67d8b	0.03008916
174	0xbd85c462	-0.06531598
175	0xbd2a4907	-0.04157355
176	0x3d06c805	0.032905597
177	0x3d6b9921	0.057519082
178	0x3d8d21e5	0.068912305
179	0xbc2b46d8	-0.010453902
180	0x3d831761	0.064009435
181	0x3d4c6412	0.049900122
182	0xbd1db53b	-0.038502913
183	0x3d234ffd	0.039871205
184	0x3cb64e69	0.022254186
185	0xbd27dd89	-0.040982757
186	0xbd35ca85	-0.04438259
187	0xbd18acbd	-0.03727411
188	0xbc817500	-0.01580286
189	0xbd873328	-0.06601554
190	0xbbccd862	-0.006251381
191	0x3d486893	0.048927855
192	0xbb6dd727	-0.003629157
193	0xbc8245ef	-0.015902488
194	0xbd4ba8aa	-0.049721397
195	0xbc9f17d3	-0.01942054
196	0xbd4270df	-0.047470924
197	0xbcdcf827	-0.026973797
198	0xbcb0e56b	-0.02159377
199	0x3d66855f	0.056279536
200	0x3d06d7c3	0.03292061
201	0x39c2d14a	0.00037158496
202	0x3d80f01b	0.062957965
203	0xbce4c80a	-0.027927417
204	0x3dd09013	0.1018373
205	0x3dc50c10	0.09621441
206	0xbcc4ec88	-0.024038568
207	0x3ca0f3f5	0.019647578
208	0x3c8983ef	0.016786544
209	0xbd297847	-0.04137447
210	0xbd86c1c2	-0.06579925
211	0xbbd2f32c	-0.0064376798
212	0x3d39374d	0.045218755
213	0x3d1f6880	0.03891802
214	0xbd65d866	-0.056114577
215	0x3d68915d	0.056779254
216	0xbd0a907e	-0.033829205
217	0x3d6c681c	0.057716474
218	0xbd03c521	-0.03217042
219	0xbd98202a	-0.0742801
220	0x3da3b0db	0.07992717
221	0x3d78c6ea	0.060736574
222	0x3d26ef75	0.040755708
223	0xbcf53b71	-0.02993557
224	0x3d43bd6b	0.047788065
225	0x3d596d00	0.053082466
226	0x3d43bc11	0.047786776
227	0x3dbce7c4	0.09223893
228	0x3d007a63	0.031366717
229	0xbb597587	-0.0033181624
230	0x3d88886d	0.06666646
231	0xbd537a85	-0.051630516
232	0xbb81ba48	-0.003958974
233	0xbbcf3148	-0.0063230135
234	0x3d25a135	0.040436942
235	0x3c8405ff	0.01611614
236	0xbce3e549	-0.027819293
237	0xbd7b251d	-0.06131469
238	0xbc42660e	-0.011865152
239	0xbd0698a2	-0.032860406
240	0x3b073ac8	0.0020634402
241	0x3daf90a1	0.08572508
242	0x3d5bc7cb	0.053657334
243	0x3be271d6	0.006910543
244	0x3d57d6da	0.052695133
245	0x3db615ff	0.08890914
246	0x3c0333f9	0.008007997
247	0xbce55fe0	-0.027999818
248	0x3cb26a11	0.021779092
249	0x3d56fcbd	0.052487124
250	0x3d9a8114	0.07544151
251	0x3d4ebba2	0.05047191
252	0xbcc3a8c3	-0.023884183
253	0x3d340c7c	0.04395722
254	0x3d4484d3	0.047978234
255	0xbd4d1e28	-0.050077587

linear3.weight f4 [3, 256]
0	0x3f4ffb2e	0.81242645
1	0xbd48c90c	-0.04901986
2	0x3e4738d6	0.19455275
3	0xbd8fefba	-0.07028146
4	0xbf1ce2a9	-0.61283356
5	0x3c0f8e08	0.00876189
6	0x3d4cf9fb	0.050043087
7	0xbce27d23	-0.02764756
8	0xbf31af34	-0.69407964
9	0xba50b8df	-0.0007962118
10	0x3e6d2b32	0.23161009
11	0xbdddf81a	-0.10838337
12	0xbd0b4791	-0.034003798
13	0x3e020c77	0.12700067
14	0xbd97a91a	-0.074053004
15	0xbc507ab7	-0.01272457
16	0x3f0780db	0.5293099
17	0x3f3ce8cb	0.73792714
18	0xbc04c012	-0.008102434
19	0xbcf40a83	-0.029790169
20	0x3d0a3cd3	0.033749413
21	0x39ea313a	0.00044668635
22	0xbdd38708	-0.103284895
23	0xbd60f375	-0.05491968
24	0x3d0a566f	0.033773836
25	0xbd6140f6	-0.054993592
26	0xbc4bd5fa	-0.012441153
27	0xbce09bc2	-0.027418021
28	0xbf5eca8c	-0.8702781
29	0x3ce691e0	0.02814573
30	0x3f192c8e	0.5983361
31	0xbbca2c8b	-0.0061698607
32	0xbd06ee1a	-0.032941915
33	0xbf0a319d	-0.53981954
34	0xbdf2ee5c	-0.1186187
35	0x3f9ca78e	1.2238634
36	0xbdd4e812	-0.103958264
37	0xbf836325	-1.0264632
38	0xbfc8c736	-1.5685794
39	0xbe554c97	-0.20829998
40	0x3d395c8b	0.04525427
41	0xbbc329f1	-0.0059559275
42	0xbdd02996	-0.10164182
43	0xbb80499b	-0.0039150245
44	0xbd8b2cae	-0.06795631
45	0x3c8290cf	0.01593819
46	0xbdc47e8a	-0.09594448
47	0x3cffebb6	0.031240325
48	0xbea85a94	-0.32881606
49	0xbdc53f68	-0.096312344
50	0xbc7fcc52	-0.015612679
51	0xbd9b8099	-0.075928874
52	0xbdf91894	-0.12162891
53	0xbc52c48e	-0.012864245
54	0x3f1d79d4	0.6151402
55	0x3eec1e32	0.46116787
56	0xbf8cdb66	-1.1004455
57	0x3f346221	0.7046223
58	0xbf0ec5b4	-0.5577042
59	0xbe028fdc	-0.1275019
60	0x3b268bea	0.0025412985
61	0xbddca0b6	-0.10772841
62	0xbf7bb11b	-0.98317116
63	0xbd05396a	-0.032525457
64	0xbde448d5	-0.11146704
65	0xbbfbb80f	-0.0076818536
66	0x3e7d8388	0.24757206
67	0xbb5acb26	-0.0033385246
68	0x3c8dc8a7	0.017307593
69	0xbf0a550f	-0.5403604
70	0xbf0c01c6	-0.54690206
71	0xbf0aed2c	-0.54268146
72	0xbfa1d285	-1.264237
73	0xbd3d7e5b	-0.04626308
74	0xbf80fe13	-1.0077537
75	0x3d5e4678	0.054266423
76	0x3f57750d	0.8416298
77	0xbe026337	-0.1273316
78	0xbdbb63ef	-0.0914992
79	0xbd926c18	-0.071495235
80	0x3f3b6e51	0.73215204
81	0xbdc3e9d8	-0.095660865
82	0x3e7c79a9	0.24655785
83	0xbf110b18	-0.5665755
84	0x3e8ae7a0	0.2712984
85	0xbb8e0602	-0.0043342123
86	0xbcab5fe5	-0.02091975
87	0x3e7082f2	0.23487452
88	0x3d9810c1	0.074250706
89	0xbd3b3432	-0.045704074
90	0x3e8b55fc	0.27214038
91	0x3ecf146e	0.40445274
92	0x3b61c94c	0.0034452258
93	0xbdfce845	-0.123489894
94	0xbdd90e71	-0.105984576
95	0x3d3e2619	0.04642305
96	0x3c31802f	0.010833784
97	0xbd772e1d	-0.06034671
98	0x3f219986	0.63124883
99	0x3f3eefd0	0.74584675
100	0xbb9c1e90	-0.0047643855
101	0xbdc8efcb	-0.09811362
102	0xbc71349c	-0.014722016
103	0xbd925a27	-0.071461014
104	0xbcba5393	-0.02274493
105	0x3e467f1a	0.19384423
106	0xbd024767	-0.031806376
107	0x3c798049	0.0152283395
108	0xbd5f8183	-0.05456687
109	0xbef49c91	-0.477757
110	0x3eff181e	0.49823087
111	0x3db24f7c	0.08706567
112	0xbef3decd	-0.4763092
113	0x3e2d032d	0.16895743
114	0x3eb61e2f	0.35569903
115	0x3f700506	0.93757665
116	0x3d39d852	0.045372315
117	0xbdbbf13c	-0.09176871
118	0xbe704ec5	-0.23467548
119	0xbc75b137	-0.014995865
120	0xbf775bef	-0.96624655
121	0xbdd38c44	-0.10329488
122	0xbe8c977f	-0.27459332
123	0xbda998e7	-0.08281117
124	0xbd5b9be3	-0.053615462
125	0xbc2df0bd	-0.0106164785
126	0x3d5ccade	0.053904407
127	0xbba6bb5f	-0.0050882543
128	0xbdac5fb5	-0.08416692
129	0xbf690a5b	-0.91031426
130	0xbd1458e8	-0.0362176
131	0xbda35f66	-0.0797718
132	0x3ca82d8c	0.020529531
133	0x3e4b62d9	0.19861926
134	0x3f6be16d	0.9214085
135	0xbf339b54	-0.70158887
136	0xbd989b1b	-0.07451459
137	0x3d71e371	0.059054796
138	0x3e523ff1	0.20532204
139	0xbf548fc3	-0.8303186
140	0x3cd9d53e	0.02659094
141	0xbc2b0c7e	-0.01043999
142	0xbcd24745	-0.02566875
143	0xbd2bad23	-0.041913163
144	0xbd5eec61	-0.054424647
145	0x3ca18803	0.019718176
146	0x3c8bb91a	0.017056037
147	0xbda9aac4	-0.08284524
148	0x3f282586	0.65682256
149	0xbda6c320	-0.08142686
150	0xbca967ed	-0.020679438
151	0xbe47f15d	-0.19525667
152	0x3d173bde	0.03692233
153	0x3ca701b9	0.020386564
154	0xbe4f5900	-0.20248795
155	0xbdcc32ec	-0.0997065
156	0xbda078f6	-0.078355715
157	0x3ca11d06	0.01966716
158	0x3f68f716	0.91002023
159	0xbca3486d	-0.019931996
160	0xbdbe188d	-0.092820264
161	0x3e8b17de	0.27166647
162	0x3f8f4282	1.1192172
163	0x3d133278	0.035936803
164	0x3cdcbc07	0.026945127
165	0x3bde4cb7	0.0067840475
166	0x3e5f7027	0.21820126
167	0xbc9e9301	-0.019357206
168	0xbd4f1cd1	-0.05056459
169	0xbdbffcc8	-0.09374386
170	0x3d16d00f	0.036819514
171	0xbc06b53c	-0.008221921
172	0x3f68114e	0.90651405
173	0x3c496890	0.012292996
174	0xbc494cd0	-0.01228638
175	0x3d3e3406	0.046436332
176	0xbd41f7e2	-0.04735554
177	0xbd98bccb	-0.074578844
178	0xbd7be385	-0.061496276
179	0xbf950553	-1.164225
180	0x3ee857ee	0.45379585
181	0x3c60eb58	0.013727985
182	0xbd01b7e6	-0.03166952
183	0xbfd24a99	-1.6429015
184	0x3ea20bab	0.31649527
185	0x3bad3cfa	0.00528681
186	0xbc2b194d	-0.010443044
187	0x3c70f663	0.014707181
188	0xbd8777f1	-0.06614674
189	0xbc65f5ee	-0.014035685
190	0xbd805194	-0.0626556
191	0xbd4ca6b5	-0.04996367
192	0xbf0323fc	-0.5122678
193	0xbd3436a2	-0.043997414
194	0x3b991d50	0.004672684
195	0x3d2c8d51	0.042126957
196	0x3c2ac565	0.010423039
197	0xbd41f1da	-0.04734979
198	0xbe292635	-0.16518481
199	0xbf02f625	-0.51156837
200	0xbd8b5890	-0.06804001
201	0xbcbc4fd8	-0.022987291
202	0xbe1467fc	-0.14492792
203	0x3e9bb52b	0.30411658
204	0x3eb85d2d	0.36008587
205	0x3f075ba5	0.52874213
206	0xbc68dafd	-0.014212367
207	0x3f50854c	0.81453395
208	0x3e37bd8d	0.17943402
209	0x3ca3c411	0.019990953
210	0xbcbeeee2	-0.023307268
211	0xbdbf8532	-0.09351577
212	0xbdebdc86	-0.11516671
213	0x3c475b4f	0.012167766
214	0xbcdfe1f4	-0.027329423
215	0xbd9ce1ac	-0.07660231
216	0xbcacf47e	-0.021112677
217	0x3f31bcc3	0.6942865
218	0xbd88e6e3	-0.06684663
219	0x3d2ac0e7	0.041687872
220	0xbdcdd525	-0.1005042
221	0xbe59b8af	-0.21261857
222	0xbde981e1	-0.114017256
223	0x3ca3e486	0.02000643
224	0x3ebfb9bd	0.37446395
225	0x3e51b42a	0.20478883
226	0xbc56a98e	-0.013101948
227	0xbdc6ca58	-0.09706563
228	0x3f5a096b	0.8517062
229	0x3e63f6a1	0.2226205
230	0xbd82e2d7	-0.063909225
231	0x3d333b24	0.043757573
232	0xbd23f473	-0.040028047
233	0xbd281563	-0.04103602
234	0xbd780956	-0.06055578
235	0x3f5aa59a	0.8540894
236	0x3e12a1bc	0.1431951
237	0x3c4b5db7	0.01241248
238	0xbde6dff4	-0.112731844
239	0x3f1a81e8	0.6035447
240	0x3b1de683	0.0024093695
241	0xbd39cf81	-0.045363907
242	0xbde91959	-0.11381788
243	0xbd3f99b1	-0.04677743
244	0xbdb27547	-0.08713775
245	0xbd97282c	-0.07380709
246	0xb8bd316b	-9.021427e-05
247	0x3c583678	0.01319658
248	0xbdfc1b09	-0.12309844
249	0xbd0d614e	-0.034516625
250	0xbdb9378f	-0.090438
251	0xbf630028	-0.88672113
252	0x3c52c58e	0.0128644835
253	0x3cdbfe1c	0.026854567
254	0xbb8c4b8d	-0.0042814673
255	0x3d264d17	0.040600862

linear3.bias f4 [3]
0	0xbd84458e	-0.06458579
1	0xbcbde9f9	-0.023182856
2	0xbcc3d268	-0.02390404
